
KTransformersExperts.load
Args: ['KTransformersExperts(\n  (orig_module): ModuleList(\n    (0-63): 64 x Qwen2MoeMLP(\n      (gate_proj): Linear(in_features=3584, out_features=2560, bias=False)\n      (up_proj): Linear(in_features=3584, out_features=2560, bias=False)\n      (down_proj): Linear(in_features=2560, out_features=3584, bias=False)\n      (act_fn): SiLU()\n    )\n  )\n)']
Kwargs: {}

KExpertsCPU.load
Args: ['<ktransformers.operators.experts.KExpertsCPU object at 0x7b94927e0790>', 'None']
Kwargs: {'warmup': 'True'}

KExpertsCPU.load_weights
Args: ['<ktransformers.operators.experts.KExpertsCPU object at 0x7b94927e0790>']
Kwargs: {}

KTransformersExperts.load
Args: ['KTransformersExperts(\n  (orig_module): ModuleList(\n    (0-63): 64 x Qwen2MoeMLP(\n      (gate_proj): Linear(in_features=3584, out_features=2560, bias=False)\n      (up_proj): Linear(in_features=3584, out_features=2560, bias=False)\n      (down_proj): Linear(in_features=2560, out_features=3584, bias=False)\n      (act_fn): SiLU()\n    )\n  )\n)']
Kwargs: {}

KExpertsCPU.load
Args: ['<ktransformers.operators.experts.KExpertsCPU object at 0x7b949230b1d0>', 'None']
Kwargs: {'warmup': 'True'}

KExpertsCPU.load_weights
Args: ['<ktransformers.operators.experts.KExpertsCPU object at 0x7b949230b1d0>']
Kwargs: {}

KTransformersExperts.load
Args: ['KTransformersExperts(\n  (orig_module): ModuleList(\n    (0-63): 64 x Qwen2MoeMLP(\n      (gate_proj): Linear(in_features=3584, out_features=2560, bias=False)\n      (up_proj): Linear(in_features=3584, out_features=2560, bias=False)\n      (down_proj): Linear(in_features=2560, out_features=3584, bias=False)\n      (act_fn): SiLU()\n    )\n  )\n)']
Kwargs: {}

KExpertsCPU.load
Args: ['<ktransformers.operators.experts.KExpertsCPU object at 0x7b9492321d10>', 'None']
Kwargs: {'warmup': 'True'}

KExpertsCPU.load_weights
Args: ['<ktransformers.operators.experts.KExpertsCPU object at 0x7b9492321d10>']
Kwargs: {}

KTransformersExperts.load
Args: ['KTransformersExperts(\n  (orig_module): ModuleList(\n    (0-63): 64 x Qwen2MoeMLP(\n      (gate_proj): Linear(in_features=3584, out_features=2560, bias=False)\n      (up_proj): Linear(in_features=3584, out_features=2560, bias=False)\n      (down_proj): Linear(in_features=2560, out_features=3584, bias=False)\n      (act_fn): SiLU()\n    )\n  )\n)']
Kwargs: {}

KExpertsCPU.load
Args: ['<ktransformers.operators.experts.KExpertsCPU object at 0x7b94923236d0>', 'None']
Kwargs: {'warmup': 'True'}

KExpertsCPU.load_weights
Args: ['<ktransformers.operators.experts.KExpertsCPU object at 0x7b94923236d0>']
Kwargs: {}

KTransformersExperts.load
Args: ['KTransformersExperts(\n  (orig_module): ModuleList(\n    (0-63): 64 x Qwen2MoeMLP(\n      (gate_proj): Linear(in_features=3584, out_features=2560, bias=False)\n      (up_proj): Linear(in_features=3584, out_features=2560, bias=False)\n      (down_proj): Linear(in_features=2560, out_features=3584, bias=False)\n      (act_fn): SiLU()\n    )\n  )\n)']
Kwargs: {}

KExpertsCPU.load
Args: ['<ktransformers.operators.experts.KExpertsCPU object at 0x7b9492339110>', 'None']
Kwargs: {'warmup': 'True'}

KExpertsCPU.load_weights
Args: ['<ktransformers.operators.experts.KExpertsCPU object at 0x7b9492339110>']
Kwargs: {}

KTransformersExperts.load
Args: ['KTransformersExperts(\n  (orig_module): ModuleList(\n    (0-63): 64 x Qwen2MoeMLP(\n      (gate_proj): Linear(in_features=3584, out_features=2560, bias=False)\n      (up_proj): Linear(in_features=3584, out_features=2560, bias=False)\n      (down_proj): Linear(in_features=2560, out_features=3584, bias=False)\n      (act_fn): SiLU()\n    )\n  )\n)']
Kwargs: {}

KExpertsCPU.load
Args: ['<ktransformers.operators.experts.KExpertsCPU object at 0x7b949233ac10>', 'None']
Kwargs: {'warmup': 'True'}

KExpertsCPU.load_weights
Args: ['<ktransformers.operators.experts.KExpertsCPU object at 0x7b949233ac10>']
Kwargs: {}

KTransformersExperts.load
Args: ['KTransformersExperts(\n  (orig_module): ModuleList(\n    (0-63): 64 x Qwen2MoeMLP(\n      (gate_proj): Linear(in_features=3584, out_features=2560, bias=False)\n      (up_proj): Linear(in_features=3584, out_features=2560, bias=False)\n      (down_proj): Linear(in_features=2560, out_features=3584, bias=False)\n      (act_fn): SiLU()\n    )\n  )\n)']
Kwargs: {}

KExpertsCPU.load
Args: ['<ktransformers.operators.experts.KExpertsCPU object at 0x7b9498104210>', 'None']
Kwargs: {'warmup': 'True'}

KExpertsCPU.load_weights
Args: ['<ktransformers.operators.experts.KExpertsCPU object at 0x7b9498104210>']
Kwargs: {}

KTransformersExperts.load
Args: ['KTransformersExperts(\n  (orig_module): ModuleList(\n    (0-63): 64 x Qwen2MoeMLP(\n      (gate_proj): Linear(in_features=3584, out_features=2560, bias=False)\n      (up_proj): Linear(in_features=3584, out_features=2560, bias=False)\n      (down_proj): Linear(in_features=2560, out_features=3584, bias=False)\n      (act_fn): SiLU()\n    )\n  )\n)']
Kwargs: {}

KExpertsCPU.load
Args: ['<ktransformers.operators.experts.KExpertsCPU object at 0x7b949234de90>', 'None']
Kwargs: {'warmup': 'True'}

KExpertsCPU.load_weights
Args: ['<ktransformers.operators.experts.KExpertsCPU object at 0x7b949234de90>']
Kwargs: {}

KTransformersExperts.load
Args: ['KTransformersExperts(\n  (orig_module): ModuleList(\n    (0-63): 64 x Qwen2MoeMLP(\n      (gate_proj): Linear(in_features=3584, out_features=2560, bias=False)\n      (up_proj): Linear(in_features=3584, out_features=2560, bias=False)\n      (down_proj): Linear(in_features=2560, out_features=3584, bias=False)\n      (act_fn): SiLU()\n    )\n  )\n)']
Kwargs: {}

KExpertsCPU.load
Args: ['<ktransformers.operators.experts.KExpertsCPU object at 0x7b949234eb90>', 'None']
Kwargs: {'warmup': 'True'}

KExpertsCPU.load_weights
Args: ['<ktransformers.operators.experts.KExpertsCPU object at 0x7b949234eb90>']
Kwargs: {}

KTransformersExperts.load
Args: ['KTransformersExperts(\n  (orig_module): ModuleList(\n    (0-63): 64 x Qwen2MoeMLP(\n      (gate_proj): Linear(in_features=3584, out_features=2560, bias=False)\n      (up_proj): Linear(in_features=3584, out_features=2560, bias=False)\n      (down_proj): Linear(in_features=2560, out_features=3584, bias=False)\n      (act_fn): SiLU()\n    )\n  )\n)']
Kwargs: {}

KExpertsCPU.load
Args: ['<ktransformers.operators.experts.KExpertsCPU object at 0x7b94923650d0>', 'None']
Kwargs: {'warmup': 'True'}

KExpertsCPU.load_weights
Args: ['<ktransformers.operators.experts.KExpertsCPU object at 0x7b94923650d0>']
Kwargs: {}

KTransformersExperts.load
Args: ['KTransformersExperts(\n  (orig_module): ModuleList(\n    (0-63): 64 x Qwen2MoeMLP(\n      (gate_proj): Linear(in_features=3584, out_features=2560, bias=False)\n      (up_proj): Linear(in_features=3584, out_features=2560, bias=False)\n      (down_proj): Linear(in_features=2560, out_features=3584, bias=False)\n      (act_fn): SiLU()\n    )\n  )\n)']
Kwargs: {}

KExpertsCPU.load
Args: ['<ktransformers.operators.experts.KExpertsCPU object at 0x7b9492366a90>', 'None']
Kwargs: {'warmup': 'True'}

KExpertsCPU.load_weights
Args: ['<ktransformers.operators.experts.KExpertsCPU object at 0x7b9492366a90>']
Kwargs: {}

KTransformersExperts.load
Args: ['KTransformersExperts(\n  (orig_module): ModuleList(\n    (0-63): 64 x Qwen2MoeMLP(\n      (gate_proj): Linear(in_features=3584, out_features=2560, bias=False)\n      (up_proj): Linear(in_features=3584, out_features=2560, bias=False)\n      (down_proj): Linear(in_features=2560, out_features=3584, bias=False)\n      (act_fn): SiLU()\n    )\n  )\n)']
Kwargs: {}

KExpertsCPU.load
Args: ['<ktransformers.operators.experts.KExpertsCPU object at 0x7b94923200d0>', 'None']
Kwargs: {'warmup': 'True'}

KExpertsCPU.load_weights
Args: ['<ktransformers.operators.experts.KExpertsCPU object at 0x7b94923200d0>']
Kwargs: {}

KTransformersExperts.load
Args: ['KTransformersExperts(\n  (orig_module): ModuleList(\n    (0-63): 64 x Qwen2MoeMLP(\n      (gate_proj): Linear(in_features=3584, out_features=2560, bias=False)\n      (up_proj): Linear(in_features=3584, out_features=2560, bias=False)\n      (down_proj): Linear(in_features=2560, out_features=3584, bias=False)\n      (act_fn): SiLU()\n    )\n  )\n)']
Kwargs: {}

KExpertsCPU.load
Args: ['<ktransformers.operators.experts.KExpertsCPU object at 0x7b9492381e50>', 'None']
Kwargs: {'warmup': 'True'}

KExpertsCPU.load_weights
Args: ['<ktransformers.operators.experts.KExpertsCPU object at 0x7b9492381e50>']
Kwargs: {}

KTransformersExperts.load
Args: ['KTransformersExperts(\n  (orig_module): ModuleList(\n    (0-63): 64 x Qwen2MoeMLP(\n      (gate_proj): Linear(in_features=3584, out_features=2560, bias=False)\n      (up_proj): Linear(in_features=3584, out_features=2560, bias=False)\n      (down_proj): Linear(in_features=2560, out_features=3584, bias=False)\n      (act_fn): SiLU()\n    )\n  )\n)']
Kwargs: {}

KExpertsCPU.load
Args: ['<ktransformers.operators.experts.KExpertsCPU object at 0x7b9492383810>', 'None']
Kwargs: {'warmup': 'True'}

KExpertsCPU.load_weights
Args: ['<ktransformers.operators.experts.KExpertsCPU object at 0x7b9492383810>']
Kwargs: {}

KTransformersExperts.load
Args: ['KTransformersExperts(\n  (orig_module): ModuleList(\n    (0-63): 64 x Qwen2MoeMLP(\n      (gate_proj): Linear(in_features=3584, out_features=2560, bias=False)\n      (up_proj): Linear(in_features=3584, out_features=2560, bias=False)\n      (down_proj): Linear(in_features=2560, out_features=3584, bias=False)\n      (act_fn): SiLU()\n    )\n  )\n)']
Kwargs: {}

KExpertsCPU.load
Args: ['<ktransformers.operators.experts.KExpertsCPU object at 0x7b949239d150>', 'None']
Kwargs: {'warmup': 'True'}

KExpertsCPU.load_weights
Args: ['<ktransformers.operators.experts.KExpertsCPU object at 0x7b949239d150>']
Kwargs: {}

KTransformersExperts.load
Args: ['KTransformersExperts(\n  (orig_module): ModuleList(\n    (0-63): 64 x Qwen2MoeMLP(\n      (gate_proj): Linear(in_features=3584, out_features=2560, bias=False)\n      (up_proj): Linear(in_features=3584, out_features=2560, bias=False)\n      (down_proj): Linear(in_features=2560, out_features=3584, bias=False)\n      (act_fn): SiLU()\n    )\n  )\n)']
Kwargs: {}

KExpertsCPU.load
Args: ['<ktransformers.operators.experts.KExpertsCPU object at 0x7b949239ead0>', 'None']
Kwargs: {'warmup': 'True'}

KExpertsCPU.load_weights
Args: ['<ktransformers.operators.experts.KExpertsCPU object at 0x7b949239ead0>']
Kwargs: {}

KTransformersExperts.load
Args: ['KTransformersExperts(\n  (orig_module): ModuleList(\n    (0-63): 64 x Qwen2MoeMLP(\n      (gate_proj): Linear(in_features=3584, out_features=2560, bias=False)\n      (up_proj): Linear(in_features=3584, out_features=2560, bias=False)\n      (down_proj): Linear(in_features=2560, out_features=3584, bias=False)\n      (act_fn): SiLU()\n    )\n  )\n)']
Kwargs: {}

KExpertsCPU.load
Args: ['<ktransformers.operators.experts.KExpertsCPU object at 0x7b94982e8210>', 'None']
Kwargs: {'warmup': 'True'}

KExpertsCPU.load_weights
Args: ['<ktransformers.operators.experts.KExpertsCPU object at 0x7b94982e8210>']
Kwargs: {}

KTransformersExperts.load
Args: ['KTransformersExperts(\n  (orig_module): ModuleList(\n    (0-63): 64 x Qwen2MoeMLP(\n      (gate_proj): Linear(in_features=3584, out_features=2560, bias=False)\n      (up_proj): Linear(in_features=3584, out_features=2560, bias=False)\n      (down_proj): Linear(in_features=2560, out_features=3584, bias=False)\n      (act_fn): SiLU()\n    )\n  )\n)']
Kwargs: {}

KExpertsCPU.load
Args: ['<ktransformers.operators.experts.KExpertsCPU object at 0x7b94923a9e90>', 'None']
Kwargs: {'warmup': 'True'}

KExpertsCPU.load_weights
Args: ['<ktransformers.operators.experts.KExpertsCPU object at 0x7b94923a9e90>']
Kwargs: {}

KTransformersExperts.load
Args: ['KTransformersExperts(\n  (orig_module): ModuleList(\n    (0-63): 64 x Qwen2MoeMLP(\n      (gate_proj): Linear(in_features=3584, out_features=2560, bias=False)\n      (up_proj): Linear(in_features=3584, out_features=2560, bias=False)\n      (down_proj): Linear(in_features=2560, out_features=3584, bias=False)\n      (act_fn): SiLU()\n    )\n  )\n)']
Kwargs: {}

KExpertsCPU.load
Args: ['<ktransformers.operators.experts.KExpertsCPU object at 0x7b94923ab790>', 'None']
Kwargs: {'warmup': 'True'}

KExpertsCPU.load_weights
Args: ['<ktransformers.operators.experts.KExpertsCPU object at 0x7b94923ab790>']
Kwargs: {}

KTransformersExperts.load
Args: ['KTransformersExperts(\n  (orig_module): ModuleList(\n    (0-63): 64 x Qwen2MoeMLP(\n      (gate_proj): Linear(in_features=3584, out_features=2560, bias=False)\n      (up_proj): Linear(in_features=3584, out_features=2560, bias=False)\n      (down_proj): Linear(in_features=2560, out_features=3584, bias=False)\n      (act_fn): SiLU()\n    )\n  )\n)']
Kwargs: {}

KExpertsCPU.load
Args: ['<ktransformers.operators.experts.KExpertsCPU object at 0x7b94923c5210>', 'None']
Kwargs: {'warmup': 'True'}

KExpertsCPU.load_weights
Args: ['<ktransformers.operators.experts.KExpertsCPU object at 0x7b94923c5210>']
Kwargs: {}

KTransformersExperts.load
Args: ['KTransformersExperts(\n  (orig_module): ModuleList(\n    (0-63): 64 x Qwen2MoeMLP(\n      (gate_proj): Linear(in_features=3584, out_features=2560, bias=False)\n      (up_proj): Linear(in_features=3584, out_features=2560, bias=False)\n      (down_proj): Linear(in_features=2560, out_features=3584, bias=False)\n      (act_fn): SiLU()\n    )\n  )\n)']
Kwargs: {}

KExpertsCPU.load
Args: ['<ktransformers.operators.experts.KExpertsCPU object at 0x7b94923c6a50>', 'None']
Kwargs: {'warmup': 'True'}

KExpertsCPU.load_weights
Args: ['<ktransformers.operators.experts.KExpertsCPU object at 0x7b94923c6a50>']
Kwargs: {}

KTransformersExperts.load
Args: ['KTransformersExperts(\n  (orig_module): ModuleList(\n    (0-63): 64 x Qwen2MoeMLP(\n      (gate_proj): Linear(in_features=3584, out_features=2560, bias=False)\n      (up_proj): Linear(in_features=3584, out_features=2560, bias=False)\n      (down_proj): Linear(in_features=2560, out_features=3584, bias=False)\n      (act_fn): SiLU()\n    )\n  )\n)']
Kwargs: {}

KExpertsCPU.load
Args: ['<ktransformers.operators.experts.KExpertsCPU object at 0x7b94923c7450>', 'None']
Kwargs: {'warmup': 'True'}

KExpertsCPU.load_weights
Args: ['<ktransformers.operators.experts.KExpertsCPU object at 0x7b94923c7450>']
Kwargs: {}

KTransformersExperts.load
Args: ['KTransformersExperts(\n  (orig_module): ModuleList(\n    (0-63): 64 x Qwen2MoeMLP(\n      (gate_proj): Linear(in_features=3584, out_features=2560, bias=False)\n      (up_proj): Linear(in_features=3584, out_features=2560, bias=False)\n      (down_proj): Linear(in_features=2560, out_features=3584, bias=False)\n      (act_fn): SiLU()\n    )\n  )\n)']
Kwargs: {}

KExpertsCPU.load
Args: ['<ktransformers.operators.experts.KExpertsCPU object at 0x7b94923d9d10>', 'None']
Kwargs: {'warmup': 'True'}

KExpertsCPU.load_weights
Args: ['<ktransformers.operators.experts.KExpertsCPU object at 0x7b94923d9d10>']
Kwargs: {}

KTransformersExperts.load
Args: ['KTransformersExperts(\n  (orig_module): ModuleList(\n    (0-63): 64 x Qwen2MoeMLP(\n      (gate_proj): Linear(in_features=3584, out_features=2560, bias=False)\n      (up_proj): Linear(in_features=3584, out_features=2560, bias=False)\n      (down_proj): Linear(in_features=2560, out_features=3584, bias=False)\n      (act_fn): SiLU()\n    )\n  )\n)']
Kwargs: {}

KExpertsCPU.load
Args: ['<ktransformers.operators.experts.KExpertsCPU object at 0x7b94923db710>', 'None']
Kwargs: {'warmup': 'True'}

KExpertsCPU.load_weights
Args: ['<ktransformers.operators.experts.KExpertsCPU object at 0x7b94923db710>']
Kwargs: {}

KTransformersExperts.load
Args: ['KTransformersExperts(\n  (orig_module): ModuleList(\n    (0-63): 64 x Qwen2MoeMLP(\n      (gate_proj): Linear(in_features=3584, out_features=2560, bias=False)\n      (up_proj): Linear(in_features=3584, out_features=2560, bias=False)\n      (down_proj): Linear(in_features=2560, out_features=3584, bias=False)\n      (act_fn): SiLU()\n    )\n  )\n)']
Kwargs: {}

KExpertsCPU.load
Args: ['<ktransformers.operators.experts.KExpertsCPU object at 0x7b94923f4d10>', 'None']
Kwargs: {'warmup': 'True'}

KExpertsCPU.load_weights
Args: ['<ktransformers.operators.experts.KExpertsCPU object at 0x7b94923f4d10>']
Kwargs: {}

KTransformersExperts.load
Args: ['KTransformersExperts(\n  (orig_module): ModuleList(\n    (0-63): 64 x Qwen2MoeMLP(\n      (gate_proj): Linear(in_features=3584, out_features=2560, bias=False)\n      (up_proj): Linear(in_features=3584, out_features=2560, bias=False)\n      (down_proj): Linear(in_features=2560, out_features=3584, bias=False)\n      (act_fn): SiLU()\n    )\n  )\n)']
Kwargs: {}

KExpertsCPU.load
Args: ['<ktransformers.operators.experts.KExpertsCPU object at 0x7b94923f69d0>', 'None']
Kwargs: {'warmup': 'True'}

KExpertsCPU.load_weights
Args: ['<ktransformers.operators.experts.KExpertsCPU object at 0x7b94923f69d0>']
Kwargs: {}

KTransformersExperts.load
Args: ['KTransformersExperts(\n  (orig_module): ModuleList(\n    (0-63): 64 x Qwen2MoeMLP(\n      (gate_proj): Linear(in_features=3584, out_features=2560, bias=False)\n      (up_proj): Linear(in_features=3584, out_features=2560, bias=False)\n      (down_proj): Linear(in_features=2560, out_features=3584, bias=False)\n      (act_fn): SiLU()\n    )\n  )\n)']
Kwargs: {}

KExpertsCPU.load
Args: ['<ktransformers.operators.experts.KExpertsCPU object at 0x7b94923f7610>', 'None']
Kwargs: {'warmup': 'True'}

KExpertsCPU.load_weights
Args: ['<ktransformers.operators.experts.KExpertsCPU object at 0x7b94923f7610>']
Kwargs: {}

KTransformersExperts.load
Args: ['KTransformersExperts(\n  (orig_module): ModuleList(\n    (0-63): 64 x Qwen2MoeMLP(\n      (gate_proj): Linear(in_features=3584, out_features=2560, bias=False)\n      (up_proj): Linear(in_features=3584, out_features=2560, bias=False)\n      (down_proj): Linear(in_features=2560, out_features=3584, bias=False)\n      (act_fn): SiLU()\n    )\n  )\n)']
Kwargs: {}

KExpertsCPU.load
Args: ['<ktransformers.operators.experts.KExpertsCPU object at 0x7b9492205dd0>', 'None']
Kwargs: {'warmup': 'True'}

KExpertsCPU.load_weights
Args: ['<ktransformers.operators.experts.KExpertsCPU object at 0x7b9492205dd0>']
Kwargs: {}

KTransformersExperts.forward
Args: ['KTransformersExperts(\n  (orig_module): ModuleList(\n    (0-63): 64 x Qwen2MoeMLP(\n      (gate_proj): Linear(in_features=3584, out_features=2560, bias=False)\n      (up_proj): Linear(in_features=3584, out_features=2560, bias=False)\n      (down_proj): Linear(in_features=2560, out_features=3584, bias=False)\n      (act_fn): SiLU()\n    )\n  )\n)', 'Tensor(shape=torch.Size([21, 3584]), dtype=torch.bfloat16, device=cpu)', 'Tensor(shape=torch.Size([21, 8]), dtype=torch.int64, device=cpu)', 'Tensor(shape=torch.Size([21, 8]), dtype=torch.bfloat16, device=cpu)']
Kwargs: {}

KExpertsCPU.forward
Args: ['<ktransformers.operators.experts.KExpertsCPU object at 0x7b94927e0790>', 'Tensor(shape=torch.Size([21, 3584]), dtype=torch.bfloat16, device=cpu)', 'Tensor(shape=torch.Size([21, 8]), dtype=torch.int64, device=cpu)', 'Tensor(shape=torch.Size([21, 8]), dtype=torch.bfloat16, device=cpu)']
Kwargs: {}

KTransformersExperts.forward
Args: ['KTransformersExperts(\n  (orig_module): ModuleList(\n    (0-63): 64 x Qwen2MoeMLP(\n      (gate_proj): Linear(in_features=3584, out_features=2560, bias=False)\n      (up_proj): Linear(in_features=3584, out_features=2560, bias=False)\n      (down_proj): Linear(in_features=2560, out_features=3584, bias=False)\n      (act_fn): SiLU()\n    )\n  )\n)', 'Tensor(shape=torch.Size([21, 3584]), dtype=torch.bfloat16, device=cpu)', 'Tensor(shape=torch.Size([21, 8]), dtype=torch.int64, device=cpu)', 'Tensor(shape=torch.Size([21, 8]), dtype=torch.bfloat16, device=cpu)']
Kwargs: {}

KExpertsCPU.forward
Args: ['<ktransformers.operators.experts.KExpertsCPU object at 0x7b949230b1d0>', 'Tensor(shape=torch.Size([21, 3584]), dtype=torch.bfloat16, device=cpu)', 'Tensor(shape=torch.Size([21, 8]), dtype=torch.int64, device=cpu)', 'Tensor(shape=torch.Size([21, 8]), dtype=torch.bfloat16, device=cpu)']
Kwargs: {}

KTransformersExperts.forward
Args: ['KTransformersExperts(\n  (orig_module): ModuleList(\n    (0-63): 64 x Qwen2MoeMLP(\n      (gate_proj): Linear(in_features=3584, out_features=2560, bias=False)\n      (up_proj): Linear(in_features=3584, out_features=2560, bias=False)\n      (down_proj): Linear(in_features=2560, out_features=3584, bias=False)\n      (act_fn): SiLU()\n    )\n  )\n)', 'Tensor(shape=torch.Size([21, 3584]), dtype=torch.bfloat16, device=cpu)', 'Tensor(shape=torch.Size([21, 8]), dtype=torch.int64, device=cpu)', 'Tensor(shape=torch.Size([21, 8]), dtype=torch.bfloat16, device=cpu)']
Kwargs: {}

KExpertsCPU.forward
Args: ['<ktransformers.operators.experts.KExpertsCPU object at 0x7b9492321d10>', 'Tensor(shape=torch.Size([21, 3584]), dtype=torch.bfloat16, device=cpu)', 'Tensor(shape=torch.Size([21, 8]), dtype=torch.int64, device=cpu)', 'Tensor(shape=torch.Size([21, 8]), dtype=torch.bfloat16, device=cpu)']
Kwargs: {}

KTransformersExperts.forward
Args: ['KTransformersExperts(\n  (orig_module): ModuleList(\n    (0-63): 64 x Qwen2MoeMLP(\n      (gate_proj): Linear(in_features=3584, out_features=2560, bias=False)\n      (up_proj): Linear(in_features=3584, out_features=2560, bias=False)\n      (down_proj): Linear(in_features=2560, out_features=3584, bias=False)\n      (act_fn): SiLU()\n    )\n  )\n)', 'Tensor(shape=torch.Size([21, 3584]), dtype=torch.bfloat16, device=cpu)', 'Tensor(shape=torch.Size([21, 8]), dtype=torch.int64, device=cpu)', 'Tensor(shape=torch.Size([21, 8]), dtype=torch.bfloat16, device=cpu)']
Kwargs: {}

KExpertsCPU.forward
Args: ['<ktransformers.operators.experts.KExpertsCPU object at 0x7b94923236d0>', 'Tensor(shape=torch.Size([21, 3584]), dtype=torch.bfloat16, device=cpu)', 'Tensor(shape=torch.Size([21, 8]), dtype=torch.int64, device=cpu)', 'Tensor(shape=torch.Size([21, 8]), dtype=torch.bfloat16, device=cpu)']
Kwargs: {}

KTransformersExperts.forward
Args: ['KTransformersExperts(\n  (orig_module): ModuleList(\n    (0-63): 64 x Qwen2MoeMLP(\n      (gate_proj): Linear(in_features=3584, out_features=2560, bias=False)\n      (up_proj): Linear(in_features=3584, out_features=2560, bias=False)\n      (down_proj): Linear(in_features=2560, out_features=3584, bias=False)\n      (act_fn): SiLU()\n    )\n  )\n)', 'Tensor(shape=torch.Size([21, 3584]), dtype=torch.bfloat16, device=cpu)', 'Tensor(shape=torch.Size([21, 8]), dtype=torch.int64, device=cpu)', 'Tensor(shape=torch.Size([21, 8]), dtype=torch.bfloat16, device=cpu)']
Kwargs: {}

KExpertsCPU.forward
Args: ['<ktransformers.operators.experts.KExpertsCPU object at 0x7b9492339110>', 'Tensor(shape=torch.Size([21, 3584]), dtype=torch.bfloat16, device=cpu)', 'Tensor(shape=torch.Size([21, 8]), dtype=torch.int64, device=cpu)', 'Tensor(shape=torch.Size([21, 8]), dtype=torch.bfloat16, device=cpu)']
Kwargs: {}

KTransformersExperts.forward
Args: ['KTransformersExperts(\n  (orig_module): ModuleList(\n    (0-63): 64 x Qwen2MoeMLP(\n      (gate_proj): Linear(in_features=3584, out_features=2560, bias=False)\n      (up_proj): Linear(in_features=3584, out_features=2560, bias=False)\n      (down_proj): Linear(in_features=2560, out_features=3584, bias=False)\n      (act_fn): SiLU()\n    )\n  )\n)', 'Tensor(shape=torch.Size([21, 3584]), dtype=torch.bfloat16, device=cpu)', 'Tensor(shape=torch.Size([21, 8]), dtype=torch.int64, device=cpu)', 'Tensor(shape=torch.Size([21, 8]), dtype=torch.bfloat16, device=cpu)']
Kwargs: {}

KExpertsCPU.forward
Args: ['<ktransformers.operators.experts.KExpertsCPU object at 0x7b949233ac10>', 'Tensor(shape=torch.Size([21, 3584]), dtype=torch.bfloat16, device=cpu)', 'Tensor(shape=torch.Size([21, 8]), dtype=torch.int64, device=cpu)', 'Tensor(shape=torch.Size([21, 8]), dtype=torch.bfloat16, device=cpu)']
Kwargs: {}

KTransformersExperts.forward
Args: ['KTransformersExperts(\n  (orig_module): ModuleList(\n    (0-63): 64 x Qwen2MoeMLP(\n      (gate_proj): Linear(in_features=3584, out_features=2560, bias=False)\n      (up_proj): Linear(in_features=3584, out_features=2560, bias=False)\n      (down_proj): Linear(in_features=2560, out_features=3584, bias=False)\n      (act_fn): SiLU()\n    )\n  )\n)', 'Tensor(shape=torch.Size([21, 3584]), dtype=torch.bfloat16, device=cpu)', 'Tensor(shape=torch.Size([21, 8]), dtype=torch.int64, device=cpu)', 'Tensor(shape=torch.Size([21, 8]), dtype=torch.bfloat16, device=cpu)']
Kwargs: {}

KExpertsCPU.forward
Args: ['<ktransformers.operators.experts.KExpertsCPU object at 0x7b9498104210>', 'Tensor(shape=torch.Size([21, 3584]), dtype=torch.bfloat16, device=cpu)', 'Tensor(shape=torch.Size([21, 8]), dtype=torch.int64, device=cpu)', 'Tensor(shape=torch.Size([21, 8]), dtype=torch.bfloat16, device=cpu)']
Kwargs: {}

KTransformersExperts.forward
Args: ['KTransformersExperts(\n  (orig_module): ModuleList(\n    (0-63): 64 x Qwen2MoeMLP(\n      (gate_proj): Linear(in_features=3584, out_features=2560, bias=False)\n      (up_proj): Linear(in_features=3584, out_features=2560, bias=False)\n      (down_proj): Linear(in_features=2560, out_features=3584, bias=False)\n      (act_fn): SiLU()\n    )\n  )\n)', 'Tensor(shape=torch.Size([21, 3584]), dtype=torch.bfloat16, device=cpu)', 'Tensor(shape=torch.Size([21, 8]), dtype=torch.int64, device=cpu)', 'Tensor(shape=torch.Size([21, 8]), dtype=torch.bfloat16, device=cpu)']
Kwargs: {}

KExpertsCPU.forward
Args: ['<ktransformers.operators.experts.KExpertsCPU object at 0x7b949234de90>', 'Tensor(shape=torch.Size([21, 3584]), dtype=torch.bfloat16, device=cpu)', 'Tensor(shape=torch.Size([21, 8]), dtype=torch.int64, device=cpu)', 'Tensor(shape=torch.Size([21, 8]), dtype=torch.bfloat16, device=cpu)']
Kwargs: {}

KTransformersExperts.forward
Args: ['KTransformersExperts(\n  (orig_module): ModuleList(\n    (0-63): 64 x Qwen2MoeMLP(\n      (gate_proj): Linear(in_features=3584, out_features=2560, bias=False)\n      (up_proj): Linear(in_features=3584, out_features=2560, bias=False)\n      (down_proj): Linear(in_features=2560, out_features=3584, bias=False)\n      (act_fn): SiLU()\n    )\n  )\n)', 'Tensor(shape=torch.Size([21, 3584]), dtype=torch.bfloat16, device=cpu)', 'Tensor(shape=torch.Size([21, 8]), dtype=torch.int64, device=cpu)', 'Tensor(shape=torch.Size([21, 8]), dtype=torch.bfloat16, device=cpu)']
Kwargs: {}

KExpertsCPU.forward
Args: ['<ktransformers.operators.experts.KExpertsCPU object at 0x7b949234eb90>', 'Tensor(shape=torch.Size([21, 3584]), dtype=torch.bfloat16, device=cpu)', 'Tensor(shape=torch.Size([21, 8]), dtype=torch.int64, device=cpu)', 'Tensor(shape=torch.Size([21, 8]), dtype=torch.bfloat16, device=cpu)']
Kwargs: {}

KTransformersExperts.forward
Args: ['KTransformersExperts(\n  (orig_module): ModuleList(\n    (0-63): 64 x Qwen2MoeMLP(\n      (gate_proj): Linear(in_features=3584, out_features=2560, bias=False)\n      (up_proj): Linear(in_features=3584, out_features=2560, bias=False)\n      (down_proj): Linear(in_features=2560, out_features=3584, bias=False)\n      (act_fn): SiLU()\n    )\n  )\n)', 'Tensor(shape=torch.Size([21, 3584]), dtype=torch.bfloat16, device=cpu)', 'Tensor(shape=torch.Size([21, 8]), dtype=torch.int64, device=cpu)', 'Tensor(shape=torch.Size([21, 8]), dtype=torch.bfloat16, device=cpu)']
Kwargs: {}

KExpertsCPU.forward
Args: ['<ktransformers.operators.experts.KExpertsCPU object at 0x7b94923650d0>', 'Tensor(shape=torch.Size([21, 3584]), dtype=torch.bfloat16, device=cpu)', 'Tensor(shape=torch.Size([21, 8]), dtype=torch.int64, device=cpu)', 'Tensor(shape=torch.Size([21, 8]), dtype=torch.bfloat16, device=cpu)']
Kwargs: {}

KTransformersExperts.forward
Args: ['KTransformersExperts(\n  (orig_module): ModuleList(\n    (0-63): 64 x Qwen2MoeMLP(\n      (gate_proj): Linear(in_features=3584, out_features=2560, bias=False)\n      (up_proj): Linear(in_features=3584, out_features=2560, bias=False)\n      (down_proj): Linear(in_features=2560, out_features=3584, bias=False)\n      (act_fn): SiLU()\n    )\n  )\n)', 'Tensor(shape=torch.Size([21, 3584]), dtype=torch.bfloat16, device=cpu)', 'Tensor(shape=torch.Size([21, 8]), dtype=torch.int64, device=cpu)', 'Tensor(shape=torch.Size([21, 8]), dtype=torch.bfloat16, device=cpu)']
Kwargs: {}

KExpertsCPU.forward
Args: ['<ktransformers.operators.experts.KExpertsCPU object at 0x7b9492366a90>', 'Tensor(shape=torch.Size([21, 3584]), dtype=torch.bfloat16, device=cpu)', 'Tensor(shape=torch.Size([21, 8]), dtype=torch.int64, device=cpu)', 'Tensor(shape=torch.Size([21, 8]), dtype=torch.bfloat16, device=cpu)']
Kwargs: {}

KTransformersExperts.forward
Args: ['KTransformersExperts(\n  (orig_module): ModuleList(\n    (0-63): 64 x Qwen2MoeMLP(\n      (gate_proj): Linear(in_features=3584, out_features=2560, bias=False)\n      (up_proj): Linear(in_features=3584, out_features=2560, bias=False)\n      (down_proj): Linear(in_features=2560, out_features=3584, bias=False)\n      (act_fn): SiLU()\n    )\n  )\n)', 'Tensor(shape=torch.Size([21, 3584]), dtype=torch.bfloat16, device=cpu)', 'Tensor(shape=torch.Size([21, 8]), dtype=torch.int64, device=cpu)', 'Tensor(shape=torch.Size([21, 8]), dtype=torch.bfloat16, device=cpu)']
Kwargs: {}

KExpertsCPU.forward
Args: ['<ktransformers.operators.experts.KExpertsCPU object at 0x7b94923200d0>', 'Tensor(shape=torch.Size([21, 3584]), dtype=torch.bfloat16, device=cpu)', 'Tensor(shape=torch.Size([21, 8]), dtype=torch.int64, device=cpu)', 'Tensor(shape=torch.Size([21, 8]), dtype=torch.bfloat16, device=cpu)']
Kwargs: {}

KTransformersExperts.forward
Args: ['KTransformersExperts(\n  (orig_module): ModuleList(\n    (0-63): 64 x Qwen2MoeMLP(\n      (gate_proj): Linear(in_features=3584, out_features=2560, bias=False)\n      (up_proj): Linear(in_features=3584, out_features=2560, bias=False)\n      (down_proj): Linear(in_features=2560, out_features=3584, bias=False)\n      (act_fn): SiLU()\n    )\n  )\n)', 'Tensor(shape=torch.Size([21, 3584]), dtype=torch.bfloat16, device=cpu)', 'Tensor(shape=torch.Size([21, 8]), dtype=torch.int64, device=cpu)', 'Tensor(shape=torch.Size([21, 8]), dtype=torch.bfloat16, device=cpu)']
Kwargs: {}

KExpertsCPU.forward
Args: ['<ktransformers.operators.experts.KExpertsCPU object at 0x7b9492381e50>', 'Tensor(shape=torch.Size([21, 3584]), dtype=torch.bfloat16, device=cpu)', 'Tensor(shape=torch.Size([21, 8]), dtype=torch.int64, device=cpu)', 'Tensor(shape=torch.Size([21, 8]), dtype=torch.bfloat16, device=cpu)']
Kwargs: {}

KTransformersExperts.forward
Args: ['KTransformersExperts(\n  (orig_module): ModuleList(\n    (0-63): 64 x Qwen2MoeMLP(\n      (gate_proj): Linear(in_features=3584, out_features=2560, bias=False)\n      (up_proj): Linear(in_features=3584, out_features=2560, bias=False)\n      (down_proj): Linear(in_features=2560, out_features=3584, bias=False)\n      (act_fn): SiLU()\n    )\n  )\n)', 'Tensor(shape=torch.Size([21, 3584]), dtype=torch.bfloat16, device=cpu)', 'Tensor(shape=torch.Size([21, 8]), dtype=torch.int64, device=cpu)', 'Tensor(shape=torch.Size([21, 8]), dtype=torch.bfloat16, device=cpu)']
Kwargs: {}

KExpertsCPU.forward
Args: ['<ktransformers.operators.experts.KExpertsCPU object at 0x7b9492383810>', 'Tensor(shape=torch.Size([21, 3584]), dtype=torch.bfloat16, device=cpu)', 'Tensor(shape=torch.Size([21, 8]), dtype=torch.int64, device=cpu)', 'Tensor(shape=torch.Size([21, 8]), dtype=torch.bfloat16, device=cpu)']
Kwargs: {}

KTransformersExperts.forward
Args: ['KTransformersExperts(\n  (orig_module): ModuleList(\n    (0-63): 64 x Qwen2MoeMLP(\n      (gate_proj): Linear(in_features=3584, out_features=2560, bias=False)\n      (up_proj): Linear(in_features=3584, out_features=2560, bias=False)\n      (down_proj): Linear(in_features=2560, out_features=3584, bias=False)\n      (act_fn): SiLU()\n    )\n  )\n)', 'Tensor(shape=torch.Size([21, 3584]), dtype=torch.bfloat16, device=cpu)', 'Tensor(shape=torch.Size([21, 8]), dtype=torch.int64, device=cpu)', 'Tensor(shape=torch.Size([21, 8]), dtype=torch.bfloat16, device=cpu)']
Kwargs: {}

KExpertsCPU.forward
Args: ['<ktransformers.operators.experts.KExpertsCPU object at 0x7b949239d150>', 'Tensor(shape=torch.Size([21, 3584]), dtype=torch.bfloat16, device=cpu)', 'Tensor(shape=torch.Size([21, 8]), dtype=torch.int64, device=cpu)', 'Tensor(shape=torch.Size([21, 8]), dtype=torch.bfloat16, device=cpu)']
Kwargs: {}

KTransformersExperts.forward
Args: ['KTransformersExperts(\n  (orig_module): ModuleList(\n    (0-63): 64 x Qwen2MoeMLP(\n      (gate_proj): Linear(in_features=3584, out_features=2560, bias=False)\n      (up_proj): Linear(in_features=3584, out_features=2560, bias=False)\n      (down_proj): Linear(in_features=2560, out_features=3584, bias=False)\n      (act_fn): SiLU()\n    )\n  )\n)', 'Tensor(shape=torch.Size([21, 3584]), dtype=torch.bfloat16, device=cpu)', 'Tensor(shape=torch.Size([21, 8]), dtype=torch.int64, device=cpu)', 'Tensor(shape=torch.Size([21, 8]), dtype=torch.bfloat16, device=cpu)']
Kwargs: {}

KExpertsCPU.forward
Args: ['<ktransformers.operators.experts.KExpertsCPU object at 0x7b949239ead0>', 'Tensor(shape=torch.Size([21, 3584]), dtype=torch.bfloat16, device=cpu)', 'Tensor(shape=torch.Size([21, 8]), dtype=torch.int64, device=cpu)', 'Tensor(shape=torch.Size([21, 8]), dtype=torch.bfloat16, device=cpu)']
Kwargs: {}

KTransformersExperts.forward
Args: ['KTransformersExperts(\n  (orig_module): ModuleList(\n    (0-63): 64 x Qwen2MoeMLP(\n      (gate_proj): Linear(in_features=3584, out_features=2560, bias=False)\n      (up_proj): Linear(in_features=3584, out_features=2560, bias=False)\n      (down_proj): Linear(in_features=2560, out_features=3584, bias=False)\n      (act_fn): SiLU()\n    )\n  )\n)', 'Tensor(shape=torch.Size([21, 3584]), dtype=torch.bfloat16, device=cpu)', 'Tensor(shape=torch.Size([21, 8]), dtype=torch.int64, device=cpu)', 'Tensor(shape=torch.Size([21, 8]), dtype=torch.bfloat16, device=cpu)']
Kwargs: {}

KExpertsCPU.forward
Args: ['<ktransformers.operators.experts.KExpertsCPU object at 0x7b94982e8210>', 'Tensor(shape=torch.Size([21, 3584]), dtype=torch.bfloat16, device=cpu)', 'Tensor(shape=torch.Size([21, 8]), dtype=torch.int64, device=cpu)', 'Tensor(shape=torch.Size([21, 8]), dtype=torch.bfloat16, device=cpu)']
Kwargs: {}

KTransformersExperts.forward
Args: ['KTransformersExperts(\n  (orig_module): ModuleList(\n    (0-63): 64 x Qwen2MoeMLP(\n      (gate_proj): Linear(in_features=3584, out_features=2560, bias=False)\n      (up_proj): Linear(in_features=3584, out_features=2560, bias=False)\n      (down_proj): Linear(in_features=2560, out_features=3584, bias=False)\n      (act_fn): SiLU()\n    )\n  )\n)', 'Tensor(shape=torch.Size([21, 3584]), dtype=torch.bfloat16, device=cpu)', 'Tensor(shape=torch.Size([21, 8]), dtype=torch.int64, device=cpu)', 'Tensor(shape=torch.Size([21, 8]), dtype=torch.bfloat16, device=cpu)']
Kwargs: {}

KExpertsCPU.forward
Args: ['<ktransformers.operators.experts.KExpertsCPU object at 0x7b94923a9e90>', 'Tensor(shape=torch.Size([21, 3584]), dtype=torch.bfloat16, device=cpu)', 'Tensor(shape=torch.Size([21, 8]), dtype=torch.int64, device=cpu)', 'Tensor(shape=torch.Size([21, 8]), dtype=torch.bfloat16, device=cpu)']
Kwargs: {}

KTransformersExperts.forward
Args: ['KTransformersExperts(\n  (orig_module): ModuleList(\n    (0-63): 64 x Qwen2MoeMLP(\n      (gate_proj): Linear(in_features=3584, out_features=2560, bias=False)\n      (up_proj): Linear(in_features=3584, out_features=2560, bias=False)\n      (down_proj): Linear(in_features=2560, out_features=3584, bias=False)\n      (act_fn): SiLU()\n    )\n  )\n)', 'Tensor(shape=torch.Size([21, 3584]), dtype=torch.bfloat16, device=cpu)', 'Tensor(shape=torch.Size([21, 8]), dtype=torch.int64, device=cpu)', 'Tensor(shape=torch.Size([21, 8]), dtype=torch.bfloat16, device=cpu)']
Kwargs: {}

KExpertsCPU.forward
Args: ['<ktransformers.operators.experts.KExpertsCPU object at 0x7b94923ab790>', 'Tensor(shape=torch.Size([21, 3584]), dtype=torch.bfloat16, device=cpu)', 'Tensor(shape=torch.Size([21, 8]), dtype=torch.int64, device=cpu)', 'Tensor(shape=torch.Size([21, 8]), dtype=torch.bfloat16, device=cpu)']
Kwargs: {}

KTransformersExperts.forward
Args: ['KTransformersExperts(\n  (orig_module): ModuleList(\n    (0-63): 64 x Qwen2MoeMLP(\n      (gate_proj): Linear(in_features=3584, out_features=2560, bias=False)\n      (up_proj): Linear(in_features=3584, out_features=2560, bias=False)\n      (down_proj): Linear(in_features=2560, out_features=3584, bias=False)\n      (act_fn): SiLU()\n    )\n  )\n)', 'Tensor(shape=torch.Size([21, 3584]), dtype=torch.bfloat16, device=cpu)', 'Tensor(shape=torch.Size([21, 8]), dtype=torch.int64, device=cpu)', 'Tensor(shape=torch.Size([21, 8]), dtype=torch.bfloat16, device=cpu)']
Kwargs: {}

KExpertsCPU.forward
Args: ['<ktransformers.operators.experts.KExpertsCPU object at 0x7b94923c5210>', 'Tensor(shape=torch.Size([21, 3584]), dtype=torch.bfloat16, device=cpu)', 'Tensor(shape=torch.Size([21, 8]), dtype=torch.int64, device=cpu)', 'Tensor(shape=torch.Size([21, 8]), dtype=torch.bfloat16, device=cpu)']
Kwargs: {}

KTransformersExperts.forward
Args: ['KTransformersExperts(\n  (orig_module): ModuleList(\n    (0-63): 64 x Qwen2MoeMLP(\n      (gate_proj): Linear(in_features=3584, out_features=2560, bias=False)\n      (up_proj): Linear(in_features=3584, out_features=2560, bias=False)\n      (down_proj): Linear(in_features=2560, out_features=3584, bias=False)\n      (act_fn): SiLU()\n    )\n  )\n)', 'Tensor(shape=torch.Size([21, 3584]), dtype=torch.bfloat16, device=cpu)', 'Tensor(shape=torch.Size([21, 8]), dtype=torch.int64, device=cpu)', 'Tensor(shape=torch.Size([21, 8]), dtype=torch.bfloat16, device=cpu)']
Kwargs: {}

KExpertsCPU.forward
Args: ['<ktransformers.operators.experts.KExpertsCPU object at 0x7b94923c6a50>', 'Tensor(shape=torch.Size([21, 3584]), dtype=torch.bfloat16, device=cpu)', 'Tensor(shape=torch.Size([21, 8]), dtype=torch.int64, device=cpu)', 'Tensor(shape=torch.Size([21, 8]), dtype=torch.bfloat16, device=cpu)']
Kwargs: {}

KTransformersExperts.forward
Args: ['KTransformersExperts(\n  (orig_module): ModuleList(\n    (0-63): 64 x Qwen2MoeMLP(\n      (gate_proj): Linear(in_features=3584, out_features=2560, bias=False)\n      (up_proj): Linear(in_features=3584, out_features=2560, bias=False)\n      (down_proj): Linear(in_features=2560, out_features=3584, bias=False)\n      (act_fn): SiLU()\n    )\n  )\n)', 'Tensor(shape=torch.Size([21, 3584]), dtype=torch.bfloat16, device=cpu)', 'Tensor(shape=torch.Size([21, 8]), dtype=torch.int64, device=cpu)', 'Tensor(shape=torch.Size([21, 8]), dtype=torch.bfloat16, device=cpu)']
Kwargs: {}

KExpertsCPU.forward
Args: ['<ktransformers.operators.experts.KExpertsCPU object at 0x7b94923c7450>', 'Tensor(shape=torch.Size([21, 3584]), dtype=torch.bfloat16, device=cpu)', 'Tensor(shape=torch.Size([21, 8]), dtype=torch.int64, device=cpu)', 'Tensor(shape=torch.Size([21, 8]), dtype=torch.bfloat16, device=cpu)']
Kwargs: {}

KTransformersExperts.forward
Args: ['KTransformersExperts(\n  (orig_module): ModuleList(\n    (0-63): 64 x Qwen2MoeMLP(\n      (gate_proj): Linear(in_features=3584, out_features=2560, bias=False)\n      (up_proj): Linear(in_features=3584, out_features=2560, bias=False)\n      (down_proj): Linear(in_features=2560, out_features=3584, bias=False)\n      (act_fn): SiLU()\n    )\n  )\n)', 'Tensor(shape=torch.Size([21, 3584]), dtype=torch.bfloat16, device=cpu)', 'Tensor(shape=torch.Size([21, 8]), dtype=torch.int64, device=cpu)', 'Tensor(shape=torch.Size([21, 8]), dtype=torch.bfloat16, device=cpu)']
Kwargs: {}

KExpertsCPU.forward
Args: ['<ktransformers.operators.experts.KExpertsCPU object at 0x7b94923d9d10>', 'Tensor(shape=torch.Size([21, 3584]), dtype=torch.bfloat16, device=cpu)', 'Tensor(shape=torch.Size([21, 8]), dtype=torch.int64, device=cpu)', 'Tensor(shape=torch.Size([21, 8]), dtype=torch.bfloat16, device=cpu)']
Kwargs: {}

KTransformersExperts.forward
Args: ['KTransformersExperts(\n  (orig_module): ModuleList(\n    (0-63): 64 x Qwen2MoeMLP(\n      (gate_proj): Linear(in_features=3584, out_features=2560, bias=False)\n      (up_proj): Linear(in_features=3584, out_features=2560, bias=False)\n      (down_proj): Linear(in_features=2560, out_features=3584, bias=False)\n      (act_fn): SiLU()\n    )\n  )\n)', 'Tensor(shape=torch.Size([21, 3584]), dtype=torch.bfloat16, device=cpu)', 'Tensor(shape=torch.Size([21, 8]), dtype=torch.int64, device=cpu)', 'Tensor(shape=torch.Size([21, 8]), dtype=torch.bfloat16, device=cpu)']
Kwargs: {}

KExpertsCPU.forward
Args: ['<ktransformers.operators.experts.KExpertsCPU object at 0x7b94923db710>', 'Tensor(shape=torch.Size([21, 3584]), dtype=torch.bfloat16, device=cpu)', 'Tensor(shape=torch.Size([21, 8]), dtype=torch.int64, device=cpu)', 'Tensor(shape=torch.Size([21, 8]), dtype=torch.bfloat16, device=cpu)']
Kwargs: {}

KTransformersExperts.forward
Args: ['KTransformersExperts(\n  (orig_module): ModuleList(\n    (0-63): 64 x Qwen2MoeMLP(\n      (gate_proj): Linear(in_features=3584, out_features=2560, bias=False)\n      (up_proj): Linear(in_features=3584, out_features=2560, bias=False)\n      (down_proj): Linear(in_features=2560, out_features=3584, bias=False)\n      (act_fn): SiLU()\n    )\n  )\n)', 'Tensor(shape=torch.Size([21, 3584]), dtype=torch.bfloat16, device=cpu)', 'Tensor(shape=torch.Size([21, 8]), dtype=torch.int64, device=cpu)', 'Tensor(shape=torch.Size([21, 8]), dtype=torch.bfloat16, device=cpu)']
Kwargs: {}

KExpertsCPU.forward
Args: ['<ktransformers.operators.experts.KExpertsCPU object at 0x7b94923f4d10>', 'Tensor(shape=torch.Size([21, 3584]), dtype=torch.bfloat16, device=cpu)', 'Tensor(shape=torch.Size([21, 8]), dtype=torch.int64, device=cpu)', 'Tensor(shape=torch.Size([21, 8]), dtype=torch.bfloat16, device=cpu)']
Kwargs: {}

KTransformersExperts.forward
Args: ['KTransformersExperts(\n  (orig_module): ModuleList(\n    (0-63): 64 x Qwen2MoeMLP(\n      (gate_proj): Linear(in_features=3584, out_features=2560, bias=False)\n      (up_proj): Linear(in_features=3584, out_features=2560, bias=False)\n      (down_proj): Linear(in_features=2560, out_features=3584, bias=False)\n      (act_fn): SiLU()\n    )\n  )\n)', 'Tensor(shape=torch.Size([21, 3584]), dtype=torch.bfloat16, device=cpu)', 'Tensor(shape=torch.Size([21, 8]), dtype=torch.int64, device=cpu)', 'Tensor(shape=torch.Size([21, 8]), dtype=torch.bfloat16, device=cpu)']
Kwargs: {}

KExpertsCPU.forward
Args: ['<ktransformers.operators.experts.KExpertsCPU object at 0x7b94923f69d0>', 'Tensor(shape=torch.Size([21, 3584]), dtype=torch.bfloat16, device=cpu)', 'Tensor(shape=torch.Size([21, 8]), dtype=torch.int64, device=cpu)', 'Tensor(shape=torch.Size([21, 8]), dtype=torch.bfloat16, device=cpu)']
Kwargs: {}

KTransformersExperts.forward
Args: ['KTransformersExperts(\n  (orig_module): ModuleList(\n    (0-63): 64 x Qwen2MoeMLP(\n      (gate_proj): Linear(in_features=3584, out_features=2560, bias=False)\n      (up_proj): Linear(in_features=3584, out_features=2560, bias=False)\n      (down_proj): Linear(in_features=2560, out_features=3584, bias=False)\n      (act_fn): SiLU()\n    )\n  )\n)', 'Tensor(shape=torch.Size([21, 3584]), dtype=torch.bfloat16, device=cpu)', 'Tensor(shape=torch.Size([21, 8]), dtype=torch.int64, device=cpu)', 'Tensor(shape=torch.Size([21, 8]), dtype=torch.bfloat16, device=cpu)']
Kwargs: {}

KExpertsCPU.forward
Args: ['<ktransformers.operators.experts.KExpertsCPU object at 0x7b94923f7610>', 'Tensor(shape=torch.Size([21, 3584]), dtype=torch.bfloat16, device=cpu)', 'Tensor(shape=torch.Size([21, 8]), dtype=torch.int64, device=cpu)', 'Tensor(shape=torch.Size([21, 8]), dtype=torch.bfloat16, device=cpu)']
Kwargs: {}

KTransformersExperts.forward
Args: ['KTransformersExperts(\n  (orig_module): ModuleList(\n    (0-63): 64 x Qwen2MoeMLP(\n      (gate_proj): Linear(in_features=3584, out_features=2560, bias=False)\n      (up_proj): Linear(in_features=3584, out_features=2560, bias=False)\n      (down_proj): Linear(in_features=2560, out_features=3584, bias=False)\n      (act_fn): SiLU()\n    )\n  )\n)', 'Tensor(shape=torch.Size([21, 3584]), dtype=torch.bfloat16, device=cpu)', 'Tensor(shape=torch.Size([21, 8]), dtype=torch.int64, device=cpu)', 'Tensor(shape=torch.Size([21, 8]), dtype=torch.bfloat16, device=cpu)']
Kwargs: {}

KExpertsCPU.forward
Args: ['<ktransformers.operators.experts.KExpertsCPU object at 0x7b9492205dd0>', 'Tensor(shape=torch.Size([21, 3584]), dtype=torch.bfloat16, device=cpu)', 'Tensor(shape=torch.Size([21, 8]), dtype=torch.int64, device=cpu)', 'Tensor(shape=torch.Size([21, 8]), dtype=torch.bfloat16, device=cpu)']
…
Kwargs: {}

KExpertsCPU.submit_for_one_decode
Args: ['<ktransformers.operators.experts.KExpertsCPU object at 0x7b9492205dd0>', 'Tensor(shape=torch.Size([3584]), dtype=torch.bfloat16, device=cuda:0)', 'Tensor(shape=torch.Size([8]), dtype=torch.int64, device=cuda:0)', 'Tensor(shape=torch.Size([8]), dtype=torch.bfloat16, device=cuda:0)']
Kwargs: {}

KExpertsCPU.sync_for_one_decode
Args: ['<ktransformers.operators.experts.KExpertsCPU object at 0x7b9492205dd0>']
Kwargs: {}

KTransformersExperts.load
Args: ['KTransformersExperts(\n  (orig_module): ModuleList(\n    (0-63): 64 x Qwen2MoeMLP(\n      (gate_proj): Linear(in_features=3584, out_features=2560, bias=False)\n      (up_proj): Linear(in_features=3584, out_features=2560, bias=False)\n      (down_proj): Linear(in_features=2560, out_features=3584, bias=False)\n      (act_fn): SiLU()\n    )\n  )\n)']
Kwargs: {}

KExpertsCPU.load
Args: ['<ktransformers.operators.experts.KExpertsCPU object at 0x7ca734b2b0d0>', 'None']
Kwargs: {'warmup': 'True'}

KExpertsCPU.load_weights
Args: ['<ktransformers.operators.experts.KExpertsCPU object at 0x7ca734b2b0d0>']
Kwargs: {}

KTransformersExperts.load
Args: ['KTransformersExperts(\n  (orig_module): ModuleList(\n    (0-63): 64 x Qwen2MoeMLP(\n      (gate_proj): Linear(in_features=3584, out_features=2560, bias=False)\n      (up_proj): Linear(in_features=3584, out_features=2560, bias=False)\n      (down_proj): Linear(in_features=2560, out_features=3584, bias=False)\n      (act_fn): SiLU()\n    )\n  )\n)']
Kwargs: {}

KExpertsCPU.load
Args: ['<ktransformers.operators.experts.KExpertsCPU object at 0x7ca71e917190>', 'None']
Kwargs: {'warmup': 'True'}

KExpertsCPU.load_weights
Args: ['<ktransformers.operators.experts.KExpertsCPU object at 0x7ca71e917190>']
Kwargs: {}

KTransformersExperts.load
Args: ['KTransformersExperts(\n  (orig_module): ModuleList(\n    (0-63): 64 x Qwen2MoeMLP(\n      (gate_proj): Linear(in_features=3584, out_features=2560, bias=False)\n      (up_proj): Linear(in_features=3584, out_features=2560, bias=False)\n      (down_proj): Linear(in_features=2560, out_features=3584, bias=False)\n      (act_fn): SiLU()\n    )\n  )\n)']
Kwargs: {}

KExpertsCPU.load
Args: ['<ktransformers.operators.experts.KExpertsCPU object at 0x7ca71e917ed0>', 'None']
Kwargs: {'warmup': 'True'}

KExpertsCPU.load_weights
Args: ['<ktransformers.operators.experts.KExpertsCPU object at 0x7ca71e917ed0>']
Kwargs: {}

KTransformersExperts.load
Args: ['KTransformersExperts(\n  (orig_module): ModuleList(\n    (0-63): 64 x Qwen2MoeMLP(\n      (gate_proj): Linear(in_features=3584, out_features=2560, bias=False)\n      (up_proj): Linear(in_features=3584, out_features=2560, bias=False)\n      (down_proj): Linear(in_features=2560, out_features=3584, bias=False)\n      (act_fn): SiLU()\n    )\n  )\n)']
Kwargs: {}

KExpertsCPU.load
Args: ['<ktransformers.operators.experts.KExpertsCPU object at 0x7ca71e97dad0>', 'None']
Kwargs: {'warmup': 'True'}

KExpertsCPU.load_weights
Args: ['<ktransformers.operators.experts.KExpertsCPU object at 0x7ca71e97dad0>']
Kwargs: {}

KTransformersExperts.load
Args: ['KTransformersExperts(\n  (orig_module): ModuleList(\n    (0-63): 64 x Qwen2MoeMLP(\n      (gate_proj): Linear(in_features=3584, out_features=2560, bias=False)\n      (up_proj): Linear(in_features=3584, out_features=2560, bias=False)\n      (down_proj): Linear(in_features=2560, out_features=3584, bias=False)\n      (act_fn): SiLU()\n    )\n  )\n)']
Kwargs: {}

KExpertsCPU.load
Args: ['<ktransformers.operators.experts.KExpertsCPU object at 0x7ca71e97f6d0>', 'None']
Kwargs: {'warmup': 'True'}

KExpertsCPU.load_weights
Args: ['<ktransformers.operators.experts.KExpertsCPU object at 0x7ca71e97f6d0>']
Kwargs: {}

KTransformersExperts.load
Args: ['KTransformersExperts(\n  (orig_module): ModuleList(\n    (0-63): 64 x Qwen2MoeMLP(\n      (gate_proj): Linear(in_features=3584, out_features=2560, bias=False)\n      (up_proj): Linear(in_features=3584, out_features=2560, bias=False)\n      (down_proj): Linear(in_features=2560, out_features=3584, bias=False)\n      (act_fn): SiLU()\n    )\n  )\n)']
Kwargs: {}

KExpertsCPU.load
Args: ['<ktransformers.operators.experts.KExpertsCPU object at 0x7ca71e9e5950>', 'None']
Kwargs: {'warmup': 'True'}

KExpertsCPU.load_weights
Args: ['<ktransformers.operators.experts.KExpertsCPU object at 0x7ca71e9e5950>']
Kwargs: {}

KTransformersExperts.load
Args: ['KTransformersExperts(\n  (orig_module): ModuleList(\n    (0-63): 64 x Qwen2MoeMLP(\n      (gate_proj): Linear(in_features=3584, out_features=2560, bias=False)\n      (up_proj): Linear(in_features=3584, out_features=2560, bias=False)\n      (down_proj): Linear(in_features=2560, out_features=3584, bias=False)\n      (act_fn): SiLU()\n    )\n  )\n)']
Kwargs: {}

KExpertsCPU.load
Args: ['<ktransformers.operators.experts.KExpertsCPU object at 0x7ca71e9813d0>', 'None']
Kwargs: {'warmup': 'True'}

KExpertsCPU.load_weights
Args: ['<ktransformers.operators.experts.KExpertsCPU object at 0x7ca71e9813d0>']
Kwargs: {}

KTransformersExperts.load
Args: ['KTransformersExperts(\n  (orig_module): ModuleList(\n    (0-63): 64 x Qwen2MoeMLP(\n      (gate_proj): Linear(in_features=3584, out_features=2560, bias=False)\n      (up_proj): Linear(in_features=3584, out_features=2560, bias=False)\n      (down_proj): Linear(in_features=2560, out_features=3584, bias=False)\n      (act_fn): SiLU()\n    )\n  )\n)']
Kwargs: {}

KExpertsCPU.load
Args: ['<ktransformers.operators.experts.KExpertsCPU object at 0x7ca71e9822d0>', 'None']
Kwargs: {'warmup': 'True'}

KExpertsCPU.load_weights
Args: ['<ktransformers.operators.experts.KExpertsCPU object at 0x7ca71e9822d0>']
Kwargs: {}

KTransformersExperts.load
Args: ['KTransformersExperts(\n  (orig_module): ModuleList(\n    (0-63): 64 x Qwen2MoeMLP(\n      (gate_proj): Linear(in_features=3584, out_features=2560, bias=False)\n      (up_proj): Linear(in_features=3584, out_features=2560, bias=False)\n      (down_proj): Linear(in_features=2560, out_features=3584, bias=False)\n      (act_fn): SiLU()\n    )\n  )\n)']
Kwargs: {}

KExpertsCPU.load
Args: ['<ktransformers.operators.experts.KExpertsCPU object at 0x7ca71e982c90>', 'None']
Kwargs: {'warmup': 'True'}

KExpertsCPU.load_weights
Args: ['<ktransformers.operators.experts.KExpertsCPU object at 0x7ca71e982c90>']
Kwargs: {}

KTransformersExperts.load
Args: ['KTransformersExperts(\n  (orig_module): ModuleList(\n    (0-63): 64 x Qwen2MoeMLP(\n      (gate_proj): Linear(in_features=3584, out_features=2560, bias=False)\n      (up_proj): Linear(in_features=3584, out_features=2560, bias=False)\n      (down_proj): Linear(in_features=2560, out_features=3584, bias=False)\n      (act_fn): SiLU()\n    )\n  )\n)']
Kwargs: {}

KExpertsCPU.load
Args: ['<ktransformers.operators.experts.KExpertsCPU object at 0x7ca71e9d5610>', 'None']
Kwargs: {'warmup': 'True'}

KExpertsCPU.load_weights
Args: ['<ktransformers.operators.experts.KExpertsCPU object at 0x7ca71e9d5610>']
Kwargs: {}

KTransformersExperts.load
Args: ['KTransformersExperts(\n  (orig_module): ModuleList(\n    (0-63): 64 x Qwen2MoeMLP(\n      (gate_proj): Linear(in_features=3584, out_features=2560, bias=False)\n      (up_proj): Linear(in_features=3584, out_features=2560, bias=False)\n      (down_proj): Linear(in_features=2560, out_features=3584, bias=False)\n      (act_fn): SiLU()\n    )\n  )\n)']
Kwargs: {}

KExpertsCPU.load
Args: ['<ktransformers.operators.experts.KExpertsCPU object at 0x7ca71e9d7a10>', 'None']
Kwargs: {'warmup': 'True'}

KExpertsCPU.load_weights
Args: ['<ktransformers.operators.experts.KExpertsCPU object at 0x7ca71e9d7a10>']
Kwargs: {}

KTransformersExperts.load
Args: ['KTransformersExperts(\n  (orig_module): ModuleList(\n    (0-63): 64 x Qwen2MoeMLP(\n      (gate_proj): Linear(in_features=3584, out_features=2560, bias=False)\n      (up_proj): Linear(in_features=3584, out_features=2560, bias=False)\n      (down_proj): Linear(in_features=2560, out_features=3584, bias=False)\n      (act_fn): SiLU()\n    )\n  )\n)']
Kwargs: {}

KExpertsCPU.load
Args: ['<ktransformers.operators.experts.KExpertsCPU object at 0x7ca71e9a5690>', 'None']
Kwargs: {'warmup': 'True'}

KExpertsCPU.load_weights
Args: ['<ktransformers.operators.experts.KExpertsCPU object at 0x7ca71e9a5690>']
Kwargs: {}

KTransformersExperts.load
Args: ['KTransformersExperts(\n  (orig_module): ModuleList(\n    (0-63): 64 x Qwen2MoeMLP(\n      (gate_proj): Linear(in_features=3584, out_features=2560, bias=False)\n      (up_proj): Linear(in_features=3584, out_features=2560, bias=False)\n      (down_proj): Linear(in_features=2560, out_features=3584, bias=False)\n      (act_fn): SiLU()\n    )\n  )\n)']
Kwargs: {}

KExpertsCPU.load
Args: ['<ktransformers.operators.experts.KExpertsCPU object at 0x7ca71e9a6cd0>', 'None']
Kwargs: {'warmup': 'True'}

KExpertsCPU.load_weights
Args: ['<ktransformers.operators.experts.KExpertsCPU object at 0x7ca71e9a6cd0>']
Kwargs: {}

KTransformersExperts.load
Args: ['KTransformersExperts(\n  (orig_module): ModuleList(\n    (0-63): 64 x Qwen2MoeMLP(\n      (gate_proj): Linear(in_features=3584, out_features=2560, bias=False)\n      (up_proj): Linear(in_features=3584, out_features=2560, bias=False)\n      (down_proj): Linear(in_features=2560, out_features=3584, bias=False)\n      (act_fn): SiLU()\n    )\n  )\n)']
Kwargs: {}

KExpertsCPU.load
Args: ['<ktransformers.operators.experts.KExpertsCPU object at 0x7ca71e9a7c10>', 'None']
Kwargs: {'warmup': 'True'}

KExpertsCPU.load_weights
Args: ['<ktransformers.operators.experts.KExpertsCPU object at 0x7ca71e9a7c10>']
Kwargs: {}

KTransformersExperts.load
Args: ['KTransformersExperts(\n  (orig_module): ModuleList(\n    (0-63): 64 x Qwen2MoeMLP(\n      (gate_proj): Linear(in_features=3584, out_features=2560, bias=False)\n      (up_proj): Linear(in_features=3584, out_features=2560, bias=False)\n      (down_proj): Linear(in_features=2560, out_features=3584, bias=False)\n      (act_fn): SiLU()\n    )\n  )\n)']
Kwargs: {}

KExpertsCPU.load
Args: ['<ktransformers.operators.experts.KExpertsCPU object at 0x7ca71e98de50>', 'None']
Kwargs: {'warmup': 'True'}

KExpertsCPU.load_weights
Args: ['<ktransformers.operators.experts.KExpertsCPU object at 0x7ca71e98de50>']
Kwargs: {}

KTransformersExperts.load
Args: ['KTransformersExperts(\n  (orig_module): ModuleList(\n    (0-63): 64 x Qwen2MoeMLP(\n      (gate_proj): Linear(in_features=3584, out_features=2560, bias=False)\n      (up_proj): Linear(in_features=3584, out_features=2560, bias=False)\n      (down_proj): Linear(in_features=2560, out_features=3584, bias=False)\n      (act_fn): SiLU()\n    )\n  )\n)']
Kwargs: {}

KExpertsCPU.load
Args: ['<ktransformers.operators.experts.KExpertsCPU object at 0x7ca71e98edd0>', 'None']
Kwargs: {'warmup': 'True'}

KExpertsCPU.load_weights
Args: ['<ktransformers.operators.experts.KExpertsCPU object at 0x7ca71e98edd0>']
Kwargs: {}

KTransformersExperts.load
Args: ['KTransformersExperts(\n  (orig_module): ModuleList(\n    (0-63): 64 x Qwen2MoeMLP(\n      (gate_proj): Linear(in_features=3584, out_features=2560, bias=False)\n      (up_proj): Linear(in_features=3584, out_features=2560, bias=False)\n      (down_proj): Linear(in_features=2560, out_features=3584, bias=False)\n      (act_fn): SiLU()\n    )\n  )\n)']
Kwargs: {}

KExpertsCPU.load
Args: ['<ktransformers.operators.experts.KExpertsCPU object at 0x7ca71e968cd0>', 'None']
Kwargs: {'warmup': 'True'}

KExpertsCPU.load_weights
Args: ['<ktransformers.operators.experts.KExpertsCPU object at 0x7ca71e968cd0>']
Kwargs: {}

KTransformersExperts.load
Args: ['KTransformersExperts(\n  (orig_module): ModuleList(\n    (0-63): 64 x Qwen2MoeMLP(\n      (gate_proj): Linear(in_features=3584, out_features=2560, bias=False)\n      (up_proj): Linear(in_features=3584, out_features=2560, bias=False)\n      (down_proj): Linear(in_features=2560, out_features=3584, bias=False)\n      (act_fn): SiLU()\n    )\n  )\n)']
Kwargs: {}

KExpertsCPU.load
Args: ['<ktransformers.operators.experts.KExpertsCPU object at 0x7ca71e968890>', 'None']
Kwargs: {'warmup': 'True'}

KExpertsCPU.load_weights
Args: ['<ktransformers.operators.experts.KExpertsCPU object at 0x7ca71e968890>']
Kwargs: {}

KTransformersExperts.load
Args: ['KTransformersExperts(\n  (orig_module): ModuleList(\n    (0-63): 64 x Qwen2MoeMLP(\n      (gate_proj): Linear(in_features=3584, out_features=2560, bias=False)\n      (up_proj): Linear(in_features=3584, out_features=2560, bias=False)\n      (down_proj): Linear(in_features=2560, out_features=3584, bias=False)\n      (act_fn): SiLU()\n    )\n  )\n)']
Kwargs: {}

KExpertsCPU.load
Args: ['<ktransformers.operators.experts.KExpertsCPU object at 0x7ca71e96b9d0>', 'None']
Kwargs: {'warmup': 'True'}

KExpertsCPU.load_weights
Args: ['<ktransformers.operators.experts.KExpertsCPU object at 0x7ca71e96b9d0>']
Kwargs: {}

KTransformersExperts.load
Args: ['KTransformersExperts(\n  (orig_module): ModuleList(\n    (0-63): 64 x Qwen2MoeMLP(\n      (gate_proj): Linear(in_features=3584, out_features=2560, bias=False)\n      (up_proj): Linear(in_features=3584, out_features=2560, bias=False)\n      (down_proj): Linear(in_features=2560, out_features=3584, bias=False)\n      (act_fn): SiLU()\n    )\n  )\n)']
Kwargs: {}

KExpertsCPU.load
Args: ['<ktransformers.operators.experts.KExpertsCPU object at 0x7ca71e951350>', 'None']
Kwargs: {'warmup': 'True'}

KExpertsCPU.load_weights
Args: ['<ktransformers.operators.experts.KExpertsCPU object at 0x7ca71e951350>']
Kwargs: {}

KTransformersExperts.load
Args: ['KTransformersExperts(\n  (orig_module): ModuleList(\n    (0-63): 64 x Qwen2MoeMLP(\n      (gate_proj): Linear(in_features=3584, out_features=2560, bias=False)\n      (up_proj): Linear(in_features=3584, out_features=2560, bias=False)\n      (down_proj): Linear(in_features=2560, out_features=3584, bias=False)\n      (act_fn): SiLU()\n    )\n  )\n)']
Kwargs: {}

KExpertsCPU.load
Args: ['<ktransformers.operators.experts.KExpertsCPU object at 0x7ca71e953750>', 'None']
Kwargs: {'warmup': 'True'}

KExpertsCPU.load_weights
Args: ['<ktransformers.operators.experts.KExpertsCPU object at 0x7ca71e953750>']
Kwargs: {}

KTransformersExperts.load
Args: ['KTransformersExperts(\n  (orig_module): ModuleList(\n    (0-63): 64 x Qwen2MoeMLP(\n      (gate_proj): Linear(in_features=3584, out_features=2560, bias=False)\n      (up_proj): Linear(in_features=3584, out_features=2560, bias=False)\n      (down_proj): Linear(in_features=2560, out_features=3584, bias=False)\n      (act_fn): SiLU()\n    )\n  )\n)']
Kwargs: {}

KExpertsCPU.load
Args: ['<ktransformers.operators.experts.KExpertsCPU object at 0x7ca71e92d0d0>', 'None']
Kwargs: {'warmup': 'True'}

KExpertsCPU.load_weights
Args: ['<ktransformers.operators.experts.KExpertsCPU object at 0x7ca71e92d0d0>']
Kwargs: {}

KTransformersExperts.load
Args: ['KTransformersExperts(\n  (orig_module): ModuleList(\n    (0-63): 64 x Qwen2MoeMLP(\n      (gate_proj): Linear(in_features=3584, out_features=2560, bias=False)\n      (up_proj): Linear(in_features=3584, out_features=2560, bias=False)\n      (down_proj): Linear(in_features=2560, out_features=3584, bias=False)\n      (act_fn): SiLU()\n    )\n  )\n)']
Kwargs: {}

KExpertsCPU.load
Args: ['<ktransformers.operators.experts.KExpertsCPU object at 0x7563c85ae250>', 'None']
Kwargs: {'warmup': 'True'}

KExpertsCPU.load_weights
Args: ['<ktransformers.operators.experts.KExpertsCPU object at 0x7563c85ae250>']
Kwargs: {}

KTransformersExperts.load
Args: ['KTransformersExperts(\n  (orig_module): ModuleList(\n    (0-63): 64 x Qwen2MoeMLP(\n      (gate_proj): Linear(in_features=3584, out_features=2560, bias=False)\n      (up_proj): Linear(in_features=3584, out_features=2560, bias=False)\n      (down_proj): Linear(in_features=2560, out_features=3584, bias=False)\n      (act_fn): SiLU()\n    )\n  )\n)']
Kwargs: {}

KExpertsCPU.load
Args: ['<ktransformers.operators.experts.KExpertsCPU object at 0x7563b2942b90>', 'None']
Kwargs: {'warmup': 'True'}

KExpertsCPU.load_weights
Args: ['<ktransformers.operators.experts.KExpertsCPU object at 0x7563b2942b90>']
Kwargs: {}

KTransformersExperts.load
Args: ['KTransformersExperts(\n  (orig_module): ModuleList(\n    (0-63): 64 x Qwen2MoeMLP(\n      (gate_proj): Linear(in_features=3584, out_features=2560, bias=False)\n      (up_proj): Linear(in_features=3584, out_features=2560, bias=False)\n      (down_proj): Linear(in_features=2560, out_features=3584, bias=False)\n      (act_fn): SiLU()\n    )\n  )\n)']
Kwargs: {}

KExpertsCPU.load
Args: ['<ktransformers.operators.experts.KExpertsCPU object at 0x7563b29438d0>', 'None']
Kwargs: {'warmup': 'True'}

KExpertsCPU.load_weights
Args: ['<ktransformers.operators.experts.KExpertsCPU object at 0x7563b29438d0>']
Kwargs: {}

KTransformersExperts.load
Args: ['KTransformersExperts(\n  (orig_module): ModuleList(\n    (0-63): 64 x Qwen2MoeMLP(\n      (gate_proj): Linear(in_features=3584, out_features=2560, bias=False)\n      (up_proj): Linear(in_features=3584, out_features=2560, bias=False)\n      (down_proj): Linear(in_features=2560, out_features=3584, bias=False)\n      (act_fn): SiLU()\n    )\n  )\n)']
Kwargs: {}

KExpertsCPU.load
Args: ['<ktransformers.operators.experts.KExpertsCPU object at 0x7563b2afa850>', 'None']
Kwargs: {'warmup': 'True'}

KExpertsCPU.load_weights
Args: ['<ktransformers.operators.experts.KExpertsCPU object at 0x7563b2afa850>']
Kwargs: {}

KTransformersExperts.load
Args: ['KTransformersExperts(\n  (orig_module): ModuleList(\n    (0-63): 64 x Qwen2MoeMLP(\n      (gate_proj): Linear(in_features=3584, out_features=2560, bias=False)\n      (up_proj): Linear(in_features=3584, out_features=2560, bias=False)\n      (down_proj): Linear(in_features=2560, out_features=3584, bias=False)\n      (act_fn): SiLU()\n    )\n  )\n)']
Kwargs: {}

KExpertsCPU.load
Args: ['<ktransformers.operators.experts.KExpertsCPU object at 0x7563b6af8990>', 'None']
Kwargs: {'warmup': 'True'}

KExpertsCPU.load_weights
Args: ['<ktransformers.operators.experts.KExpertsCPU object at 0x7563b6af8990>']
Kwargs: {}

KTransformersExperts.load
Args: ['KTransformersExperts(\n  (orig_module): ModuleList(\n    (0-63): 64 x Qwen2MoeMLP(\n      (gate_proj): Linear(in_features=3584, out_features=2560, bias=False)\n      (up_proj): Linear(in_features=3584, out_features=2560, bias=False)\n      (down_proj): Linear(in_features=2560, out_features=3584, bias=False)\n      (act_fn): SiLU()\n    )\n  )\n)']
Kwargs: {}

KExpertsCPU.load
Args: ['<ktransformers.operators.experts.KExpertsCPU object at 0x7563b29ea650>', 'None']
Kwargs: {'warmup': 'True'}

KExpertsCPU.load_weights
Args: ['<ktransformers.operators.experts.KExpertsCPU object at 0x7563b29ea650>']
Kwargs: {}

KTransformersExperts.load
Args: ['KTransformersExperts(\n  (orig_module): ModuleList(\n    (0-63): 64 x Qwen2MoeMLP(\n      (gate_proj): Linear(in_features=3584, out_features=2560, bias=False)\n      (up_proj): Linear(in_features=3584, out_features=2560, bias=False)\n      (down_proj): Linear(in_features=2560, out_features=3584, bias=False)\n      (act_fn): SiLU()\n    )\n  )\n)']
Kwargs: {}

KExpertsCPU.load
Args: ['<ktransformers.operators.experts.KExpertsCPU object at 0x7563b29c1cd0>', 'None']
Kwargs: {'warmup': 'True'}

KExpertsCPU.load_weights
Args: ['<ktransformers.operators.experts.KExpertsCPU object at 0x7563b29c1cd0>']
Kwargs: {}

KTransformersExperts.load
Args: ['KTransformersExperts(\n  (orig_module): ModuleList(\n    (0-63): 64 x Qwen2MoeMLP(\n      (gate_proj): Linear(in_features=3584, out_features=2560, bias=False)\n      (up_proj): Linear(in_features=3584, out_features=2560, bias=False)\n      (down_proj): Linear(in_features=2560, out_features=3584, bias=False)\n      (act_fn): SiLU()\n    )\n  )\n)']
Kwargs: {}

KExpertsCPU.load
Args: ['<ktransformers.operators.experts.KExpertsCPU object at 0x7563b29c3910>', 'None']
Kwargs: {'warmup': 'True'}

KExpertsCPU.load_weights
Args: ['<ktransformers.operators.experts.KExpertsCPU object at 0x7563b29c3910>']
Kwargs: {}

KTransformersExperts.load
Args: ['KTransformersExperts(\n  (orig_module): ModuleList(\n    (0-63): 64 x Qwen2MoeMLP(\n      (gate_proj): Linear(in_features=3584, out_features=2560, bias=False)\n      (up_proj): Linear(in_features=3584, out_features=2560, bias=False)\n      (down_proj): Linear(in_features=2560, out_features=3584, bias=False)\n      (act_fn): SiLU()\n    )\n  )\n)']
Kwargs: {}

KExpertsCPU.load
Args: ['<ktransformers.operators.experts.KExpertsCPU object at 0x7563b29e4c50>', 'None']
Kwargs: {'warmup': 'True'}

KExpertsCPU.load_weights
Args: ['<ktransformers.operators.experts.KExpertsCPU object at 0x7563b29e4c50>']
Kwargs: {}

KTransformersExperts.load
Args: ['KTransformersExperts(\n  (orig_module): ModuleList(\n    (0-63): 64 x Qwen2MoeMLP(\n      (gate_proj): Linear(in_features=3584, out_features=2560, bias=False)\n      (up_proj): Linear(in_features=3584, out_features=2560, bias=False)\n      (down_proj): Linear(in_features=2560, out_features=3584, bias=False)\n      (act_fn): SiLU()\n    )\n  )\n)']
Kwargs: {}

KExpertsCPU.load
Args: ['<ktransformers.operators.experts.KExpertsCPU object at 0x7563b29e6b90>', 'None']
Kwargs: {'warmup': 'True'}

KExpertsCPU.load_weights
Args: ['<ktransformers.operators.experts.KExpertsCPU object at 0x7563b29e6b90>']
Kwargs: {}

KTransformersExperts.load
Args: ['KTransformersExperts(\n  (orig_module): ModuleList(\n    (0-63): 64 x Qwen2MoeMLP(\n      (gate_proj): Linear(in_features=3584, out_features=2560, bias=False)\n      (up_proj): Linear(in_features=3584, out_features=2560, bias=False)\n      (down_proj): Linear(in_features=2560, out_features=3584, bias=False)\n      (act_fn): SiLU()\n    )\n  )\n)']
Kwargs: {}

KExpertsCPU.load
Args: ['<ktransformers.operators.experts.KExpertsCPU object at 0x7563b29e7790>', 'None']
Kwargs: {'warmup': 'True'}

KExpertsCPU.load_weights
Args: ['<ktransformers.operators.experts.KExpertsCPU object at 0x7563b29e7790>']
Kwargs: {}

KTransformersExperts.load
Args: ['KTransformersExperts(\n  (orig_module): ModuleList(\n    (0-63): 64 x Qwen2MoeMLP(\n      (gate_proj): Linear(in_features=3584, out_features=2560, bias=False)\n      (up_proj): Linear(in_features=3584, out_features=2560, bias=False)\n      (down_proj): Linear(in_features=2560, out_features=3584, bias=False)\n      (act_fn): SiLU()\n    )\n  )\n)']
Kwargs: {}

KExpertsCPU.load
Args: ['<ktransformers.operators.experts.KExpertsCPU object at 0x7563b29a90d0>', 'None']
Kwargs: {'warmup': 'True'}

KExpertsCPU.load_weights
Args: ['<ktransformers.operators.experts.KExpertsCPU object at 0x7563b29a90d0>']
Kwargs: {}

KTransformersExperts.load
Args: ['KTransformersExperts(\n  (orig_module): ModuleList(\n    (0-63): 64 x Qwen2MoeMLP(\n      (gate_proj): Linear(in_features=3584, out_features=2560, bias=False)\n      (up_proj): Linear(in_features=3584, out_features=2560, bias=False)\n      (down_proj): Linear(in_features=2560, out_features=3584, bias=False)\n      (act_fn): SiLU()\n    )\n  )\n)']
Kwargs: {}

KExpertsCPU.load
Args: ['<ktransformers.operators.experts.KExpertsCPU object at 0x7563b29ab810>', 'None']
Kwargs: {'warmup': 'True'}

KExpertsCPU.load_weights
Args: ['<ktransformers.operators.experts.KExpertsCPU object at 0x7563b29ab810>']
Kwargs: {}

KTransformersExperts.load
Args: ['KTransformersExperts(\n  (orig_module): ModuleList(\n    (0-63): 64 x Qwen2MoeMLP(\n      (gate_proj): Linear(in_features=3584, out_features=2560, bias=False)\n      (up_proj): Linear(in_features=3584, out_features=2560, bias=False)\n      (down_proj): Linear(in_features=2560, out_features=3584, bias=False)\n      (act_fn): SiLU()\n    )\n  )\n)']
Kwargs: {}

KExpertsCPU.load
Args: ['<ktransformers.operators.experts.KExpertsCPU object at 0x7563b2990490>', 'None']
Kwargs: {'warmup': 'True'}

KExpertsCPU.load_weights
Args: ['<ktransformers.operators.experts.KExpertsCPU object at 0x7563b2990490>']
Kwargs: {}

KTransformersExperts.load
Args: ['KTransformersExperts(\n  (orig_module): ModuleList(\n    (0-63): 64 x Qwen2MoeMLP(\n      (gate_proj): Linear(in_features=3584, out_features=2560, bias=False)\n      (up_proj): Linear(in_features=3584, out_features=2560, bias=False)\n      (down_proj): Linear(in_features=2560, out_features=3584, bias=False)\n      (act_fn): SiLU()\n    )\n  )\n)']
Kwargs: {}

KExpertsCPU.load
Args: ['<ktransformers.operators.experts.KExpertsCPU object at 0x7563b2991d90>', 'None']
Kwargs: {'warmup': 'True'}

KExpertsCPU.load_weights
Args: ['<ktransformers.operators.experts.KExpertsCPU object at 0x7563b2991d90>']
Kwargs: {}

KTransformersExperts.load
Args: ['KTransformersExperts(\n  (orig_module): ModuleList(\n    (0-63): 64 x Qwen2MoeMLP(\n      (gate_proj): Linear(in_features=3584, out_features=2560, bias=False)\n      (up_proj): Linear(in_features=3584, out_features=2560, bias=False)\n      (down_proj): Linear(in_features=2560, out_features=3584, bias=False)\n      (act_fn): SiLU()\n    )\n  )\n)']
Kwargs: {}

KExpertsCPU.load
Args: ['<ktransformers.operators.experts.KExpertsCPU object at 0x7563b2993690>', 'None']
Kwargs: {'warmup': 'True'}

KExpertsCPU.load_weights
Args: ['<ktransformers.operators.experts.KExpertsCPU object at 0x7563b2993690>']
Kwargs: {}

KTransformersExperts.load
Args: ['KTransformersExperts(\n  (orig_module): ModuleList(\n    (0-63): 64 x Qwen2MoeMLP(\n      (gate_proj): Linear(in_features=3584, out_features=2560, bias=False)\n      (up_proj): Linear(in_features=3584, out_features=2560, bias=False)\n      (down_proj): Linear(in_features=2560, out_features=3584, bias=False)\n      (act_fn): SiLU()\n    )\n  )\n)']
Kwargs: {}

KExpertsCPU.load
Args: ['<ktransformers.operators.experts.KExpertsCPU object at 0x7563b2971990>', 'None']
Kwargs: {'warmup': 'True'}

KExpertsCPU.load_weights
Args: ['<ktransformers.operators.experts.KExpertsCPU object at 0x7563b2971990>']
Kwargs: {}

KTransformersExperts.load
Args: ['KTransformersExperts(\n  (orig_module): ModuleList(\n    (0-63): 64 x Qwen2MoeMLP(\n      (gate_proj): Linear(in_features=3584, out_features=2560, bias=False)\n      (up_proj): Linear(in_features=3584, out_features=2560, bias=False)\n      (down_proj): Linear(in_features=2560, out_features=3584, bias=False)\n      (act_fn): SiLU()\n    )\n  )\n)']
Kwargs: {}

KExpertsCPU.load
Args: ['<ktransformers.operators.experts.KExpertsCPU object at 0x7563b29736d0>', 'None']
Kwargs: {'warmup': 'True'}

KExpertsCPU.load_weights
Args: ['<ktransformers.operators.experts.KExpertsCPU object at 0x7563b29736d0>']
Kwargs: {}

KTransformersExperts.load
Args: ['KTransformersExperts(\n  (orig_module): ModuleList(\n    (0-63): 64 x Qwen2MoeMLP(\n      (gate_proj): Linear(in_features=3584, out_features=2560, bias=False)\n      (up_proj): Linear(in_features=3584, out_features=2560, bias=False)\n      (down_proj): Linear(in_features=2560, out_features=3584, bias=False)\n      (act_fn): SiLU()\n    )\n  )\n)']
Kwargs: {}

KExpertsCPU.load
Args: ['<ktransformers.operators.experts.KExpertsCPU object at 0x7563b2954350>', 'None']
Kwargs: {'warmup': 'True'}

KExpertsCPU.load_weights
Args: ['<ktransformers.operators.experts.KExpertsCPU object at 0x7563b2954350>']
Kwargs: {}

KTransformersExperts.load
Args: ['KTransformersExperts(\n  (orig_module): ModuleList(\n    (0-63): 64 x Qwen2MoeMLP(\n      (gate_proj): Linear(in_features=3584, out_features=2560, bias=False)\n      (up_proj): Linear(in_features=3584, out_features=2560, bias=False)\n      (down_proj): Linear(in_features=2560, out_features=3584, bias=False)\n      (act_fn): SiLU()\n    )\n  )\n)']
Kwargs: {}

KExpertsCPU.load
Args: ['<ktransformers.operators.experts.KExpertsCPU object at 0x7563b29569d0>', 'None']
Kwargs: {'warmup': 'True'}

KExpertsCPU.load_weights
Args: ['<ktransformers.operators.experts.KExpertsCPU object at 0x7563b29569d0>']
Kwargs: {}

KTransformersExperts.load
Args: ['KTransformersExperts(\n  (orig_module): ModuleList(\n    (0-63): 64 x Qwen2MoeMLP(\n      (gate_proj): Linear(in_features=3584, out_features=2560, bias=False)\n      (up_proj): Linear(in_features=3584, out_features=2560, bias=False)\n      (down_proj): Linear(in_features=2560, out_features=3584, bias=False)\n      (act_fn): SiLU()\n    )\n  )\n)']
Kwargs: {}

KExpertsCPU.load
Args: ['<ktransformers.operators.experts.KExpertsCPU object at 0x7563b29575d0>', 'None']
Kwargs: {'warmup': 'True'}

KExpertsCPU.load_weights
Args: ['<ktransformers.operators.experts.KExpertsCPU object at 0x7563b29575d0>']
Kwargs: {}

KTransformersExperts.load
Args: ['KTransformersExperts(\n  (orig_module): ModuleList(\n    (0-63): 64 x Qwen2MoeMLP(\n      (gate_proj): Linear(in_features=3584, out_features=2560, bias=False)\n      (up_proj): Linear(in_features=3584, out_features=2560, bias=False)\n      (down_proj): Linear(in_features=2560, out_features=3584, bias=False)\n      (act_fn): SiLU()\n    )\n  )\n)']
Kwargs: {}

KExpertsCPU.load
Args: ['<ktransformers.operators.experts.KExpertsCPU object at 0x7563b29358d0>', 'None']
Kwargs: {'warmup': 'True'}

KExpertsCPU.load_weights
Args: ['<ktransformers.operators.experts.KExpertsCPU object at 0x7563b29358d0>']
Kwargs: {}

KTransformersExperts.load
Args: ['KTransformersExperts(\n  (orig_module): ModuleList(\n    (0-63): 64 x Qwen2MoeMLP(\n      (gate_proj): Linear(in_features=3584, out_features=2560, bias=False)\n      (up_proj): Linear(in_features=3584, out_features=2560, bias=False)\n      (down_proj): Linear(in_features=2560, out_features=3584, bias=False)\n      (act_fn): SiLU()\n    )\n  )\n)']
Kwargs: {}

KExpertsCPU.load
Args: ['<ktransformers.operators.experts.KExpertsCPU object at 0x7563b2936d50>', 'None']
Kwargs: {'warmup': 'True'}

KExpertsCPU.load_weights
Args: ['<ktransformers.operators.experts.KExpertsCPU object at 0x7563b2936d50>']
Kwargs: {}

KTransformersExperts.load
Args: ['KTransformersExperts(\n  (orig_module): ModuleList(\n    (0-63): 64 x Qwen2MoeMLP(\n      (gate_proj): Linear(in_features=3584, out_features=2560, bias=False)\n      (up_proj): Linear(in_features=3584, out_features=2560, bias=False)\n      (down_proj): Linear(in_features=2560, out_features=3584, bias=False)\n      (act_fn): SiLU()\n    )\n  )\n)']
Kwargs: {}

KExpertsCPU.load
Args: ['<ktransformers.operators.experts.KExpertsCPU object at 0x7563b29ecc50>', 'None']
Kwargs: {'warmup': 'True'}

KExpertsCPU.load_weights
Args: ['<ktransformers.operators.experts.KExpertsCPU object at 0x7563b29ecc50>']
Kwargs: {}

KTransformersExperts.load
Args: ['KTransformersExperts(\n  (orig_module): ModuleList(\n    (0-63): 64 x Qwen2MoeMLP(\n      (gate_proj): Linear(in_features=3584, out_features=2560, bias=False)\n      (up_proj): Linear(in_features=3584, out_features=2560, bias=False)\n      (down_proj): Linear(in_features=2560, out_features=3584, bias=False)\n      (act_fn): SiLU()\n    )\n  )\n)']
Kwargs: {}

KExpertsCPU.load
Args: ['<ktransformers.operators.experts.KExpertsCPU object at 0x7563b29ee910>', 'None']
Kwargs: {'warmup': 'True'}

KExpertsCPU.load_weights
Args: ['<ktransformers.operators.experts.KExpertsCPU object at 0x7563b29ee910>']
Kwargs: {}

KTransformersExperts.load
Args: ['KTransformersExperts(\n  (orig_module): ModuleList(\n    (0-63): 64 x Qwen2MoeMLP(\n      (gate_proj): Linear(in_features=3584, out_features=2560, bias=False)\n      (up_proj): Linear(in_features=3584, out_features=2560, bias=False)\n      (down_proj): Linear(in_features=2560, out_features=3584, bias=False)\n      (act_fn): SiLU()\n    )\n  )\n)']
Kwargs: {}

KExpertsCPU.load
Args: ['<ktransformers.operators.experts.KExpertsCPU object at 0x7563b29ef5d0>', 'None']
Kwargs: {'warmup': 'True'}

KExpertsCPU.load_weights
Args: ['<ktransformers.operators.experts.KExpertsCPU object at 0x7563b29ef5d0>']
Kwargs: {}

KTransformersExperts.load
Args: ['KTransformersExperts(\n  (orig_module): ModuleList(\n    (0-63): 64 x Qwen2MoeMLP(\n      (gate_proj): Linear(in_features=3584, out_features=2560, bias=False)\n      (up_proj): Linear(in_features=3584, out_features=2560, bias=False)\n      (down_proj): Linear(in_features=2560, out_features=3584, bias=False)\n      (act_fn): SiLU()\n    )\n  )\n)']
Kwargs: {}

KExpertsCPU.load
Args: ['<ktransformers.operators.experts.KExpertsCPU object at 0x7563b2500d10>', 'None']
Kwargs: {'warmup': 'True'}

KExpertsCPU.load_weights
Args: ['<ktransformers.operators.experts.KExpertsCPU object at 0x7563b2500d10>']
Kwargs: {}

KTransformersExperts.load
Args: ['KTransformersExperts(\n  (orig_module): ModuleList(\n    (0-63): 64 x Qwen2MoeMLP(\n      (gate_proj): Linear(in_features=3584, out_features=2560, bias=False)\n      (up_proj): Linear(in_features=3584, out_features=2560, bias=False)\n      (down_proj): Linear(in_features=2560, out_features=3584, bias=False)\n      (act_fn): SiLU()\n    )\n  )\n)']
Kwargs: {}

KExpertsCPU.load
Args: ['<ktransformers.operators.experts.KExpertsCPU object at 0x7563b2502750>', 'None']
Kwargs: {'warmup': 'True'}

KExpertsCPU.load_weights
Args: ['<ktransformers.operators.experts.KExpertsCPU object at 0x7563b2502750>']
Kwargs: {}

KTransformersExperts.forward
Args: ['KTransformersExperts(\n  (orig_module): ModuleList(\n    (0-63): 64 x Qwen2MoeMLP(\n      (gate_proj): Linear(in_features=3584, out_features=2560, bias=False)\n      (up_proj): Linear(in_features=3584, out_features=2560, bias=False)\n      (down_proj): Linear(in_features=2560, out_features=3584, bias=False)\n      (act_fn): SiLU()\n    )\n  )\n)', 'Tensor(shape=torch.Size([21, 3584]), dtype=torch.bfloat16, device=cpu)', 'Tensor(shape=torch.Size([21, 8]), dtype=torch.int64, device=cpu)', 'Tensor(shape=torch.Size([21, 8]), dtype=torch.bfloat16, device=cpu)']
Kwargs: {}

KExpertsCPU.forward
Args: ['<ktransformers.operators.experts.KExpertsCPU object at 0x7563c85ae250>', 'Tensor(shape=torch.Size([21, 3584]), dtype=torch.bfloat16, device=cpu)', 'Tensor(shape=torch.Size([21, 8]), dtype=torch.int64, device=cpu)', 'Tensor(shape=torch.Size([21, 8]), dtype=torch.bfloat16, device=cpu)']
Kwargs: {}

KTransformersExperts.forward
Args: ['KTransformersExperts(\n  (orig_module): ModuleList(\n    (0-63): 64 x Qwen2MoeMLP(\n      (gate_proj): Linear(in_features=3584, out_features=2560, bias=False)\n      (up_proj): Linear(in_features=3584, out_features=2560, bias=False)\n      (down_proj): Linear(in_features=2560, out_features=3584, bias=False)\n      (act_fn): SiLU()\n    )\n  )\n)', 'Tensor(shape=torch.Size([21, 3584]), dtype=torch.bfloat16, device=cpu)', 'Tensor(shape=torch.Size([21, 8]), dtype=torch.int64, device=cpu)', 'Tensor(shape=torch.Size([21, 8]), dtype=torch.bfloat16, device=cpu)']
Kwargs: {}

KExpertsCPU.forward
Args: ['<ktransformers.operators.experts.KExpertsCPU object at 0x7563b2942b90>', 'Tensor(shape=torch.Size([21, 3584]), dtype=torch.bfloat16, device=cpu)', 'Tensor(shape=torch.Size([21, 8]), dtype=torch.int64, device=cpu)', 'Tensor(shape=torch.Size([21, 8]), dtype=torch.bfloat16, device=cpu)']
Kwargs: {}

KTransformersExperts.forward
Args: ['KTransformersExperts(\n  (orig_module): ModuleList(\n    (0-63): 64 x Qwen2MoeMLP(\n      (gate_proj): Linear(in_features=3584, out_features=2560, bias=False)\n      (up_proj): Linear(in_features=3584, out_features=2560, bias=False)\n      (down_proj): Linear(in_features=2560, out_features=3584, bias=False)\n      (act_fn): SiLU()\n    )\n  )\n)', 'Tensor(shape=torch.Size([21, 3584]), dtype=torch.bfloat16, device=cpu)', 'Tensor(shape=torch.Size([21, 8]), dtype=torch.int64, device=cpu)', 'Tensor(shape=torch.Size([21, 8]), dtype=torch.bfloat16, device=cpu)']
Kwargs: {}

KExpertsCPU.forward
Args: ['<ktransformers.operators.experts.KExpertsCPU object at 0x7563b29438d0>', 'Tensor(shape=torch.Size([21, 3584]), dtype=torch.bfloat16, device=cpu)', 'Tensor(shape=torch.Size([21, 8]), dtype=torch.int64, device=cpu)', 'Tensor(shape=torch.Size([21, 8]), dtype=torch.bfloat16, device=cpu)']
Kwargs: {}

KTransformersExperts.forward
Args: ['KTransformersExperts(\n  (orig_module): ModuleList(\n    (0-63): 64 x Qwen2MoeMLP(\n      (gate_proj): Linear(in_features=3584, out_features=2560, bias=False)\n      (up_proj): Linear(in_features=3584, out_features=2560, bias=False)\n      (down_proj): Linear(in_features=2560, out_features=3584, bias=False)\n      (act_fn): SiLU()\n    )\n  )\n)', 'Tensor(shape=torch.Size([21, 3584]), dtype=torch.bfloat16, device=cpu)', 'Tensor(shape=torch.Size([21, 8]), dtype=torch.int64, device=cpu)', 'Tensor(shape=torch.Size([21, 8]), dtype=torch.bfloat16, device=cpu)']
Kwargs: {}

KExpertsCPU.forward
Args: ['<ktransformers.operators.experts.KExpertsCPU object at 0x7563b2afa850>', 'Tensor(shape=torch.Size([21, 3584]), dtype=torch.bfloat16, device=cpu)', 'Tensor(shape=torch.Size([21, 8]), dtype=torch.int64, device=cpu)', 'Tensor(shape=torch.Size([21, 8]), dtype=torch.bfloat16, device=cpu)']
Kwargs: {}

KTransformersExperts.forward
Args: ['KTransformersExperts(\n  (orig_module): ModuleList(\n    (0-63): 64 x Qwen2MoeMLP(\n      (gate_proj): Linear(in_features=3584, out_features=2560, bias=False)\n      (up_proj): Linear(in_features=3584, out_features=2560, bias=False)\n      (down_proj): Linear(in_features=2560, out_features=3584, bias=False)\n      (act_fn): SiLU()\n    )\n  )\n)', 'Tensor(shape=torch.Size([21, 3584]), dtype=torch.bfloat16, device=cpu)', 'Tensor(shape=torch.Size([21, 8]), dtype=torch.int64, device=cpu)', 'Tensor(shape=torch.Size([21, 8]), dtype=torch.bfloat16, device=cpu)']
Kwargs: {}

KExpertsCPU.forward
Args: ['<ktransformers.operators.experts.KExpertsCPU object at 0x7563b6af8990>', 'Tensor(shape=torch.Size([21, 3584]), dtype=torch.bfloat16, device=cpu)', 'Tensor(shape=torch.Size([21, 8]), dtype=torch.int64, device=cpu)', 'Tensor(shape=torch.Size([21, 8]), dtype=torch.bfloat16, device=cpu)']
Kwargs: {}

KTransformersExperts.forward
Args: ['KTransformersExperts(\n  (orig_module): ModuleList(\n    (0-63): 64 x Qwen2MoeMLP(\n      (gate_proj): Linear(in_features=3584, out_features=2560, bias=False)\n      (up_proj): Linear(in_features=3584, out_features=2560, bias=False)\n      (down_proj): Linear(in_features=2560, out_features=3584, bias=False)\n      (act_fn): SiLU()\n    )\n  )\n)', 'Tensor(shape=torch.Size([21, 3584]), dtype=torch.bfloat16, device=cpu)', 'Tensor(shape=torch.Size([21, 8]), dtype=torch.int64, device=cpu)', 'Tensor(shape=torch.Size([21, 8]), dtype=torch.bfloat16, device=cpu)']
Kwargs: {}

KExpertsCPU.forward
Args: ['<ktransformers.operators.experts.KExpertsCPU object at 0x7563b29ea650>', 'Tensor(shape=torch.Size([21, 3584]), dtype=torch.bfloat16, device=cpu)', 'Tensor(shape=torch.Size([21, 8]), dtype=torch.int64, device=cpu)', 'Tensor(shape=torch.Size([21, 8]), dtype=torch.bfloat16, device=cpu)']
Kwargs: {}

KTransformersExperts.forward
Args: ['KTransformersExperts(\n  (orig_module): ModuleList(\n    (0-63): 64 x Qwen2MoeMLP(\n      (gate_proj): Linear(in_features=3584, out_features=2560, bias=False)\n      (up_proj): Linear(in_features=3584, out_features=2560, bias=False)\n      (down_proj): Linear(in_features=2560, out_features=3584, bias=False)\n      (act_fn): SiLU()\n    )\n  )\n)', 'Tensor(shape=torch.Size([21, 3584]), dtype=torch.bfloat16, device=cpu)', 'Tensor(shape=torch.Size([21, 8]), dtype=torch.int64, device=cpu)', 'Tensor(shape=torch.Size([21, 8]), dtype=torch.bfloat16, device=cpu)']
Kwargs: {}

KExpertsCPU.forward
Args: ['<ktransformers.operators.experts.KExpertsCPU object at 0x7563b29c1cd0>', 'Tensor(shape=torch.Size([21, 3584]), dtype=torch.bfloat16, device=cpu)', 'Tensor(shape=torch.Size([21, 8]), dtype=torch.int64, device=cpu)', 'Tensor(shape=torch.Size([21, 8]), dtype=torch.bfloat16, device=cpu)']
Kwargs: {}

KTransformersExperts.forward
Args: ['KTransformersExperts(\n  (orig_module): ModuleList(\n    (0-63): 64 x Qwen2MoeMLP(\n      (gate_proj): Linear(in_features=3584, out_features=2560, bias=False)\n      (up_proj): Linear(in_features=3584, out_features=2560, bias=False)\n      (down_proj): Linear(in_features=2560, out_features=3584, bias=False)\n      (act_fn): SiLU()\n    )\n  )\n)', 'Tensor(shape=torch.Size([21, 3584]), dtype=torch.bfloat16, device=cpu)', 'Tensor(shape=torch.Size([21, 8]), dtype=torch.int64, device=cpu)', 'Tensor(shape=torch.Size([21, 8]), dtype=torch.bfloat16, device=cpu)']
Kwargs: {}

KExpertsCPU.forward
Args: ['<ktransformers.operators.experts.KExpertsCPU object at 0x7563b29c3910>', 'Tensor(shape=torch.Size([21, 3584]), dtype=torch.bfloat16, device=cpu)', 'Tensor(shape=torch.Size([21, 8]), dtype=torch.int64, device=cpu)', 'Tensor(shape=torch.Size([21, 8]), dtype=torch.bfloat16, device=cpu)']
Kwargs: {}

KTransformersExperts.forward
Args: ['KTransformersExperts(\n  (orig_module): ModuleList(\n    (0-63): 64 x Qwen2MoeMLP(\n      (gate_proj): Linear(in_features=3584, out_features=2560, bias=False)\n      (up_proj): Linear(in_features=3584, out_features=2560, bias=False)\n      (down_proj): Linear(in_features=2560, out_features=3584, bias=False)\n      (act_fn): SiLU()\n    )\n  )\n)', 'Tensor(shape=torch.Size([21, 3584]), dtype=torch.bfloat16, device=cpu)', 'Tensor(shape=torch.Size([21, 8]), dtype=torch.int64, device=cpu)', 'Tensor(shape=torch.Size([21, 8]), dtype=torch.bfloat16, device=cpu)']
Kwargs: {}

KExpertsCPU.forward
Args: ['<ktransformers.operators.experts.KExpertsCPU object at 0x7563b29e4c50>', 'Tensor(shape=torch.Size([21, 3584]), dtype=torch.bfloat16, device=cpu)', 'Tensor(shape=torch.Size([21, 8]), dtype=torch.int64, device=cpu)', 'Tensor(shape=torch.Size([21, 8]), dtype=torch.bfloat16, device=cpu)']
Kwargs: {}

KTransformersExperts.forward
Args: ['KTransformersExperts(\n  (orig_module): ModuleList(\n    (0-63): 64 x Qwen2MoeMLP(\n      (gate_proj): Linear(in_features=3584, out_features=2560, bias=False)\n      (up_proj): Linear(in_features=3584, out_features=2560, bias=False)\n      (down_proj): Linear(in_features=2560, out_features=3584, bias=False)\n      (act_fn): SiLU()\n    )\n  )\n)', 'Tensor(shape=torch.Size([21, 3584]), dtype=torch.bfloat16, device=cpu)', 'Tensor(shape=torch.Size([21, 8]), dtype=torch.int64, device=cpu)', 'Tensor(shape=torch.Size([21, 8]), dtype=torch.bfloat16, device=cpu)']
Kwargs: {}

KExpertsCPU.forward
Args: ['<ktransformers.operators.experts.KExpertsCPU object at 0x7563b29e6b90>', 'Tensor(shape=torch.Size([21, 3584]), dtype=torch.bfloat16, device=cpu)', 'Tensor(shape=torch.Size([21, 8]), dtype=torch.int64, device=cpu)', 'Tensor(shape=torch.Size([21, 8]), dtype=torch.bfloat16, device=cpu)']
Kwargs: {}

KTransformersExperts.forward
Args: ['KTransformersExperts(\n  (orig_module): ModuleList(\n    (0-63): 64 x Qwen2MoeMLP(\n      (gate_proj): Linear(in_features=3584, out_features=2560, bias=False)\n      (up_proj): Linear(in_features=3584, out_features=2560, bias=False)\n      (down_proj): Linear(in_features=2560, out_features=3584, bias=False)\n      (act_fn): SiLU()\n    )\n  )\n)', 'Tensor(shape=torch.Size([21, 3584]), dtype=torch.bfloat16, device=cpu)', 'Tensor(shape=torch.Size([21, 8]), dtype=torch.int64, device=cpu)', 'Tensor(shape=torch.Size([21, 8]), dtype=torch.bfloat16, device=cpu)']
Kwargs: {}

KExpertsCPU.forward
Args: ['<ktransformers.operators.experts.KExpertsCPU object at 0x7563b29e7790>', 'Tensor(shape=torch.Size([21, 3584]), dtype=torch.bfloat16, device=cpu)', 'Tensor(shape=torch.Size([21, 8]), dtype=torch.int64, device=cpu)', 'Tensor(shape=torch.Size([21, 8]), dtype=torch.bfloat16, device=cpu)']
Kwargs: {}

KTransformersExperts.forward
Args: ['KTransformersExperts(\n  (orig_module): ModuleList(\n    (0-63): 64 x Qwen2MoeMLP(\n      (gate_proj): Linear(in_features=3584, out_features=2560, bias=False)\n      (up_proj): Linear(in_features=3584, out_features=2560, bias=False)\n      (down_proj): Linear(in_features=2560, out_features=3584, bias=False)\n      (act_fn): SiLU()\n    )\n  )\n)', 'Tensor(shape=torch.Size([21, 3584]), dtype=torch.bfloat16, device=cpu)', 'Tensor(shape=torch.Size([21, 8]), dtype=torch.int64, device=cpu)', 'Tensor(shape=torch.Size([21, 8]), dtype=torch.bfloat16, device=cpu)']
Kwargs: {}

KExpertsCPU.forward
Args: ['<ktransformers.operators.experts.KExpertsCPU object at 0x7563b29a90d0>', 'Tensor(shape=torch.Size([21, 3584]), dtype=torch.bfloat16, device=cpu)', 'Tensor(shape=torch.Size([21, 8]), dtype=torch.int64, device=cpu)', 'Tensor(shape=torch.Size([21, 8]), dtype=torch.bfloat16, device=cpu)']
Kwargs: {}

KTransformersExperts.forward
Args: ['KTransformersExperts(\n  (orig_module): ModuleList(\n    (0-63): 64 x Qwen2MoeMLP(\n      (gate_proj): Linear(in_features=3584, out_features=2560, bias=False)\n      (up_proj): Linear(in_features=3584, out_features=2560, bias=False)\n      (down_proj): Linear(in_features=2560, out_features=3584, bias=False)\n      (act_fn): SiLU()\n    )\n  )\n)', 'Tensor(shape=torch.Size([21, 3584]), dtype=torch.bfloat16, device=cpu)', 'Tensor(shape=torch.Size([21, 8]), dtype=torch.int64, device=cpu)', 'Tensor(shape=torch.Size([21, 8]), dtype=torch.bfloat16, device=cpu)']
Kwargs: {}

KExpertsCPU.forward
Args: ['<ktransformers.operators.experts.KExpertsCPU object at 0x7563b29ab810>', 'Tensor(shape=torch.Size([21, 3584]), dtype=torch.bfloat16, device=cpu)', 'Tensor(shape=torch.Size([21, 8]), dtype=torch.int64, device=cpu)', 'Tensor(shape=torch.Size([21, 8]), dtype=torch.bfloat16, device=cpu)']
Kwargs: {}

KTransformersExperts.forward
Args: ['KTransformersExperts(\n  (orig_module): ModuleList(\n    (0-63): 64 x Qwen2MoeMLP(\n      (gate_proj): Linear(in_features=3584, out_features=2560, bias=False)\n      (up_proj): Linear(in_features=3584, out_features=2560, bias=False)\n      (down_proj): Linear(in_features=2560, out_features=3584, bias=False)\n      (act_fn): SiLU()\n    )\n  )\n)', 'Tensor(shape=torch.Size([21, 3584]), dtype=torch.bfloat16, device=cpu)', 'Tensor(shape=torch.Size([21, 8]), dtype=torch.int64, device=cpu)', 'Tensor(shape=torch.Size([21, 8]), dtype=torch.bfloat16, device=cpu)']
Kwargs: {}

KExpertsCPU.forward
Args: ['<ktransformers.operators.experts.KExpertsCPU object at 0x7563b2990490>', 'Tensor(shape=torch.Size([21, 3584]), dtype=torch.bfloat16, device=cpu)', 'Tensor(shape=torch.Size([21, 8]), dtype=torch.int64, device=cpu)', 'Tensor(shape=torch.Size([21, 8]), dtype=torch.bfloat16, device=cpu)']
Kwargs: {}

KTransformersExperts.forward
Args: ['KTransformersExperts(\n  (orig_module): ModuleList(\n    (0-63): 64 x Qwen2MoeMLP(\n      (gate_proj): Linear(in_features=3584, out_features=2560, bias=False)\n      (up_proj): Linear(in_features=3584, out_features=2560, bias=False)\n      (down_proj): Linear(in_features=2560, out_features=3584, bias=False)\n      (act_fn): SiLU()\n    )\n  )\n)', 'Tensor(shape=torch.Size([21, 3584]), dtype=torch.bfloat16, device=cpu)', 'Tensor(shape=torch.Size([21, 8]), dtype=torch.int64, device=cpu)', 'Tensor(shape=torch.Size([21, 8]), dtype=torch.bfloat16, device=cpu)']
Kwargs: {}

KExpertsCPU.forward
Args: ['<ktransformers.operators.experts.KExpertsCPU object at 0x7563b2991d90>', 'Tensor(shape=torch.Size([21, 3584]), dtype=torch.bfloat16, device=cpu)', 'Tensor(shape=torch.Size([21, 8]), dtype=torch.int64, device=cpu)', 'Tensor(shape=torch.Size([21, 8]), dtype=torch.bfloat16, device=cpu)']
Kwargs: {}

KTransformersExperts.forward
Args: ['KTransformersExperts(\n  (orig_module): ModuleList(\n    (0-63): 64 x Qwen2MoeMLP(\n      (gate_proj): Linear(in_features=3584, out_features=2560, bias=False)\n      (up_proj): Linear(in_features=3584, out_features=2560, bias=False)\n      (down_proj): Linear(in_features=2560, out_features=3584, bias=False)\n      (act_fn): SiLU()\n    )\n  )\n)', 'Tensor(shape=torch.Size([21, 3584]), dtype=torch.bfloat16, device=cpu)', 'Tensor(shape=torch.Size([21, 8]), dtype=torch.int64, device=cpu)', 'Tensor(shape=torch.Size([21, 8]), dtype=torch.bfloat16, device=cpu)']
Kwargs: {}

KExpertsCPU.forward
Args: ['<ktransformers.operators.experts.KExpertsCPU object at 0x7563b2993690>', 'Tensor(shape=torch.Size([21, 3584]), dtype=torch.bfloat16, device=cpu)', 'Tensor(shape=torch.Size([21, 8]), dtype=torch.int64, device=cpu)', 'Tensor(shape=torch.Size([21, 8]), dtype=torch.bfloat16, device=cpu)']
Kwargs: {}

KTransformersExperts.forward
Args: ['KTransformersExperts(\n  (orig_module): ModuleList(\n    (0-63): 64 x Qwen2MoeMLP(\n      (gate_proj): Linear(in_features=3584, out_features=2560, bias=False)\n      (up_proj): Linear(in_features=3584, out_features=2560, bias=False)\n      (down_proj): Linear(in_features=2560, out_features=3584, bias=False)\n      (act_fn): SiLU()\n    )\n  )\n)', 'Tensor(shape=torch.Size([21, 3584]), dtype=torch.bfloat16, device=cpu)', 'Tensor(shape=torch.Size([21, 8]), dtype=torch.int64, device=cpu)', 'Tensor(shape=torch.Size([21, 8]), dtype=torch.bfloat16, device=cpu)']
Kwargs: {}

KExpertsCPU.forward
Args: ['<ktransformers.operators.experts.KExpertsCPU object at 0x7563b2971990>', 'Tensor(shape=torch.Size([21, 3584]), dtype=torch.bfloat16, device=cpu)', 'Tensor(shape=torch.Size([21, 8]), dtype=torch.int64, device=cpu)', 'Tensor(shape=torch.Size([21, 8]), dtype=torch.bfloat16, device=cpu)']
Kwargs: {}

KTransformersExperts.forward
Args: ['KTransformersExperts(\n  (orig_module): ModuleList(\n    (0-63): 64 x Qwen2MoeMLP(\n      (gate_proj): Linear(in_features=3584, out_features=2560, bias=False)\n      (up_proj): Linear(in_features=3584, out_features=2560, bias=False)\n      (down_proj): Linear(in_features=2560, out_features=3584, bias=False)\n      (act_fn): SiLU()\n    )\n  )\n)', 'Tensor(shape=torch.Size([21, 3584]), dtype=torch.bfloat16, device=cpu)', 'Tensor(shape=torch.Size([21, 8]), dtype=torch.int64, device=cpu)', 'Tensor(shape=torch.Size([21, 8]), dtype=torch.bfloat16, device=cpu)']
Kwargs: {}

KExpertsCPU.forward
Args: ['<ktransformers.operators.experts.KExpertsCPU object at 0x7563b29736d0>', 'Tensor(shape=torch.Size([21, 3584]), dtype=torch.bfloat16, device=cpu)', 'Tensor(shape=torch.Size([21, 8]), dtype=torch.int64, device=cpu)', 'Tensor(shape=torch.Size([21, 8]), dtype=torch.bfloat16, device=cpu)']
Kwargs: {}

KTransformersExperts.forward
Args: ['KTransformersExperts(\n  (orig_module): ModuleList(\n    (0-63): 64 x Qwen2MoeMLP(\n      (gate_proj): Linear(in_features=3584, out_features=2560, bias=False)\n      (up_proj): Linear(in_features=3584, out_features=2560, bias=False)\n      (down_proj): Linear(in_features=2560, out_features=3584, bias=False)\n      (act_fn): SiLU()\n    )\n  )\n)', 'Tensor(shape=torch.Size([21, 3584]), dtype=torch.bfloat16, device=cpu)', 'Tensor(shape=torch.Size([21, 8]), dtype=torch.int64, device=cpu)', 'Tensor(shape=torch.Size([21, 8]), dtype=torch.bfloat16, device=cpu)']
Kwargs: {}

KExpertsCPU.forward
Args: ['<ktransformers.operators.experts.KExpertsCPU object at 0x7563b2954350>', 'Tensor(shape=torch.Size([21, 3584]), dtype=torch.bfloat16, device=cpu)', 'Tensor(shape=torch.Size([21, 8]), dtype=torch.int64, device=cpu)', 'Tensor(shape=torch.Size([21, 8]), dtype=torch.bfloat16, device=cpu)']
Kwargs: {}

KTransformersExperts.forward
Args: ['KTransformersExperts(\n  (orig_module): ModuleList(\n    (0-63): 64 x Qwen2MoeMLP(\n      (gate_proj): Linear(in_features=3584, out_features=2560, bias=False)\n      (up_proj): Linear(in_features=3584, out_features=2560, bias=False)\n      (down_proj): Linear(in_features=2560, out_features=3584, bias=False)\n      (act_fn): SiLU()\n    )\n  )\n)', 'Tensor(shape=torch.Size([21, 3584]), dtype=torch.bfloat16, device=cpu)', 'Tensor(shape=torch.Size([21, 8]), dtype=torch.int64, device=cpu)', 'Tensor(shape=torch.Size([21, 8]), dtype=torch.bfloat16, device=cpu)']
Kwargs: {}

KExpertsCPU.forward
Args: ['<ktransformers.operators.experts.KExpertsCPU object at 0x7563b29569d0>', 'Tensor(shape=torch.Size([21, 3584]), dtype=torch.bfloat16, device=cpu)', 'Tensor(shape=torch.Size([21, 8]), dtype=torch.int64, device=cpu)', 'Tensor(shape=torch.Size([21, 8]), dtype=torch.bfloat16, device=cpu)']
Kwargs: {}

KTransformersExperts.forward
Args: ['KTransformersExperts(\n  (orig_module): ModuleList(\n    (0-63): 64 x Qwen2MoeMLP(\n      (gate_proj): Linear(in_features=3584, out_features=2560, bias=False)\n      (up_proj): Linear(in_features=3584, out_features=2560, bias=False)\n      (down_proj): Linear(in_features=2560, out_features=3584, bias=False)\n      (act_fn): SiLU()\n    )\n  )\n)', 'Tensor(shape=torch.Size([21, 3584]), dtype=torch.bfloat16, device=cpu)', 'Tensor(shape=torch.Size([21, 8]), dtype=torch.int64, device=cpu)', 'Tensor(shape=torch.Size([21, 8]), dtype=torch.bfloat16, device=cpu)']
Kwargs: {}

KExpertsCPU.forward
Args: ['<ktransformers.operators.experts.KExpertsCPU object at 0x7563b29575d0>', 'Tensor(shape=torch.Size([21, 3584]), dtype=torch.bfloat16, device=cpu)', 'Tensor(shape=torch.Size([21, 8]), dtype=torch.int64, device=cpu)', 'Tensor(shape=torch.Size([21, 8]), dtype=torch.bfloat16, device=cpu)']
Kwargs: {}

KTransformersExperts.forward
Args: ['KTransformersExperts(\n  (orig_module): ModuleList(\n    (0-63): 64 x Qwen2MoeMLP(\n      (gate_proj): Linear(in_features=3584, out_features=2560, bias=False)\n      (up_proj): Linear(in_features=3584, out_features=2560, bias=False)\n      (down_proj): Linear(in_features=2560, out_features=3584, bias=False)\n      (act_fn): SiLU()\n    )\n  )\n)', 'Tensor(shape=torch.Size([21, 3584]), dtype=torch.bfloat16, device=cpu)', 'Tensor(shape=torch.Size([21, 8]), dtype=torch.int64, device=cpu)', 'Tensor(shape=torch.Size([21, 8]), dtype=torch.bfloat16, device=cpu)']
Kwargs: {}

KExpertsCPU.forward
Args: ['<ktransformers.operators.experts.KExpertsCPU object at 0x7563b29358d0>', 'Tensor(shape=torch.Size([21, 3584]), dtype=torch.bfloat16, device=cpu)', 'Tensor(shape=torch.Size([21, 8]), dtype=torch.int64, device=cpu)', 'Tensor(shape=torch.Size([21, 8]), dtype=torch.bfloat16, device=cpu)']
Kwargs: {}

KTransformersExperts.forward
Args: ['KTransformersExperts(\n  (orig_module): ModuleList(\n    (0-63): 64 x Qwen2MoeMLP(\n      (gate_proj): Linear(in_features=3584, out_features=2560, bias=False)\n      (up_proj): Linear(in_features=3584, out_features=2560, bias=False)\n      (down_proj): Linear(in_features=2560, out_features=3584, bias=False)\n      (act_fn): SiLU()\n    )\n  )\n)', 'Tensor(shape=torch.Size([21, 3584]), dtype=torch.bfloat16, device=cpu)', 'Tensor(shape=torch.Size([21, 8]), dtype=torch.int64, device=cpu)', 'Tensor(shape=torch.Size([21, 8]), dtype=torch.bfloat16, device=cpu)']
Kwargs: {}

KExpertsCPU.forward
Args: ['<ktransformers.operators.experts.KExpertsCPU object at 0x7563b2936d50>', 'Tensor(shape=torch.Size([21, 3584]), dtype=torch.bfloat16, device=cpu)', 'Tensor(shape=torch.Size([21, 8]), dtype=torch.int64, device=cpu)', 'Tensor(shape=torch.Size([21, 8]), dtype=torch.bfloat16, device=cpu)']
Kwargs: {}

KTransformersExperts.forward
Args: ['KTransformersExperts(\n  (orig_module): ModuleList(\n    (0-63): 64 x Qwen2MoeMLP(\n      (gate_proj): Linear(in_features=3584, out_features=2560, bias=False)\n      (up_proj): Linear(in_features=3584, out_features=2560, bias=False)\n      (down_proj): Linear(in_features=2560, out_features=3584, bias=False)\n      (act_fn): SiLU()\n    )\n  )\n)', 'Tensor(shape=torch.Size([21, 3584]), dtype=torch.bfloat16, device=cpu)', 'Tensor(shape=torch.Size([21, 8]), dtype=torch.int64, device=cpu)', 'Tensor(shape=torch.Size([21, 8]), dtype=torch.bfloat16, device=cpu)']
Kwargs: {}

KExpertsCPU.forward
Args: ['<ktransformers.operators.experts.KExpertsCPU object at 0x7563b29ecc50>', 'Tensor(shape=torch.Size([21, 3584]), dtype=torch.bfloat16, device=cpu)', 'Tensor(shape=torch.Size([21, 8]), dtype=torch.int64, device=cpu)', 'Tensor(shape=torch.Size([21, 8]), dtype=torch.bfloat16, device=cpu)']
Kwargs: {}

KTransformersExperts.forward
Args: ['KTransformersExperts(\n  (orig_module): ModuleList(\n    (0-63): 64 x Qwen2MoeMLP(\n      (gate_proj): Linear(in_features=3584, out_features=2560, bias=False)\n      (up_proj): Linear(in_features=3584, out_features=2560, bias=False)\n      (down_proj): Linear(in_features=2560, out_features=3584, bias=False)\n      (act_fn): SiLU()\n    )\n  )\n)', 'Tensor(shape=torch.Size([21, 3584]), dtype=torch.bfloat16, device=cpu)', 'Tensor(shape=torch.Size([21, 8]), dtype=torch.int64, device=cpu)', 'Tensor(shape=torch.Size([21, 8]), dtype=torch.bfloat16, device=cpu)']
Kwargs: {}

KExpertsCPU.forward
Args: ['<ktransformers.operators.experts.KExpertsCPU object at 0x7563b29ee910>', 'Tensor(shape=torch.Size([21, 3584]), dtype=torch.bfloat16, device=cpu)', 'Tensor(shape=torch.Size([21, 8]), dtype=torch.int64, device=cpu)', 'Tensor(shape=torch.Size([21, 8]), dtype=torch.bfloat16, device=cpu)']
Kwargs: {}

KTransformersExperts.forward
Args: ['KTransformersExperts(\n  (orig_module): ModuleList(\n    (0-63): 64 x Qwen2MoeMLP(\n      (gate_proj): Linear(in_features=3584, out_features=2560, bias=False)\n      (up_proj): Linear(in_features=3584, out_features=2560, bias=False)\n      (down_proj): Linear(in_features=2560, out_features=3584, bias=False)\n      (act_fn): SiLU()\n    )\n  )\n)', 'Tensor(shape=torch.Size([21, 3584]), dtype=torch.bfloat16, device=cpu)', 'Tensor(shape=torch.Size([21, 8]), dtype=torch.int64, device=cpu)', 'Tensor(shape=torch.Size([21, 8]), dtype=torch.bfloat16, device=cpu)']
Kwargs: {}

KExpertsCPU.forward
Args: ['<ktransformers.operators.experts.KExpertsCPU object at 0x7563b29ef5d0>', 'Tensor(shape=torch.Size([21, 3584]), dtype=torch.bfloat16, device=cpu)', 'Tensor(shape=torch.Size([21, 8]), dtype=torch.int64, device=cpu)', 'Tensor(shape=torch.Size([21, 8]), dtype=torch.bfloat16, device=cpu)']
Kwargs: {}

KTransformersExperts.forward
Args: ['KTransformersExperts(\n  (orig_module): ModuleList(\n    (0-63): 64 x Qwen2MoeMLP(\n      (gate_proj): Linear(in_features=3584, out_features=2560, bias=False)\n      (up_proj): Linear(in_features=3584, out_features=2560, bias=False)\n      (down_proj): Linear(in_features=2560, out_features=3584, bias=False)\n      (act_fn): SiLU()\n    )\n  )\n)', 'Tensor(shape=torch.Size([21, 3584]), dtype=torch.bfloat16, device=cpu)', 'Tensor(shape=torch.Size([21, 8]), dtype=torch.int64, device=cpu)', 'Tensor(shape=torch.Size([21, 8]), dtype=torch.bfloat16, device=cpu)']
Kwargs: {}

KExpertsCPU.forward
Args: ['<ktransformers.operators.experts.KExpertsCPU object at 0x7563b2500d10>', 'Tensor(shape=torch.Size([21, 3584]), dtype=torch.bfloat16, device=cpu)', 'Tensor(shape=torch.Size([21, 8]), dtype=torch.int64, device=cpu)', 'Tensor(shape=torch.Size([21, 8]), dtype=torch.bfloat16, device=cpu)']
Kwargs: {}

KTransformersExperts.forward
Args: ['KTransformersExperts(\n  (orig_module): ModuleList(\n    (0-63): 64 x Qwen2MoeMLP(\n      (gate_proj): Linear(in_features=3584, out_features=2560, bias=False)\n      (up_proj): Linear(in_features=3584, out_features=2560, bias=False)\n      (down_proj): Linear(in_features=2560, out_features=3584, bias=False)\n      (act_fn): SiLU()\n    )\n  )\n)', 'Tensor(shape=torch.Size([21, 3584]), dtype=torch.bfloat16, device=cpu)', 'Tensor(shape=torch.Size([21, 8]), dtype=torch.int64, device=cpu)', 'Tensor(shape=torch.Size([21, 8]), dtype=torch.bfloat16, device=cpu)']
Kwargs: {}

KExpertsCPU.forward
Args: ['<ktransformers.operators.experts.KExpertsCPU object at 0x7563b2502750>', 'Tensor(shape=torch.Size([21, 3584]), dtype=torch.bfloat16, device=cpu)', 'Tensor(shape=torch.Size([21, 8]), dtype=torch.int64, device=cpu)', 'Tensor(shape=torch.Size([21, 8]), dtype=torch.bfloat16, device=cpu)']
…

KExpertsCPU.submit_for_one_decode
Args: ['<ktransformers.operators.experts.KExpertsCPU object at 0x7563b2502750>', 'Tensor(shape=torch.Size([3584]), dtype=torch.bfloat16, device=cuda:0)', 'Tensor(shape=torch.Size([8]), dtype=torch.int64, device=cuda:0)', 'Tensor(shape=torch.Size([8]), dtype=torch.bfloat16, device=cuda:0)']
Kwargs: {}

KExpertsCPU.sync_for_one_decode
Args: ['<ktransformers.operators.experts.KExpertsCPU object at 0x7563b2502750>']
Kwargs: {}

KTransformersExperts.forward
Args: ['KTransformersExperts(\n  (orig_module): ModuleList(\n    (0-63): 64 x Qwen2MoeMLP(\n      (gate_proj): Linear(in_features=3584, out_features=2560, bias=False)\n      (up_proj): Linear(in_features=3584, out_features=2560, bias=False)\n      (down_proj): Linear(in_features=2560, out_features=3584, bias=False)\n      (act_fn): SiLU()\n    )\n  )\n)', 'Tensor(shape=torch.Size([30, 3584]), dtype=torch.bfloat16, device=cpu)', 'Tensor(shape=torch.Size([30, 8]), dtype=torch.int64, device=cpu)', 'Tensor(shape=torch.Size([30, 8]), dtype=torch.bfloat16, device=cpu)']
Kwargs: {}

KExpertsCPU.forward
Args: ['<ktransformers.operators.experts.KExpertsCPU object at 0x7563c85ae250>', 'Tensor(shape=torch.Size([30, 3584]), dtype=torch.bfloat16, device=cpu)', 'Tensor(shape=torch.Size([30, 8]), dtype=torch.int64, device=cpu)', 'Tensor(shape=torch.Size([30, 8]), dtype=torch.bfloat16, device=cpu)']
Kwargs: {}

KTransformersExperts.forward
Args: ['KTransformersExperts(\n  (orig_module): ModuleList(\n    (0-63): 64 x Qwen2MoeMLP(\n      (gate_proj): Linear(in_features=3584, out_features=2560, bias=False)\n      (up_proj): Linear(in_features=3584, out_features=2560, bias=False)\n      (down_proj): Linear(in_features=2560, out_features=3584, bias=False)\n      (act_fn): SiLU()\n    )\n  )\n)', 'Tensor(shape=torch.Size([30, 3584]), dtype=torch.bfloat16, device=cpu)', 'Tensor(shape=torch.Size([30, 8]), dtype=torch.int64, device=cpu)', 'Tensor(shape=torch.Size([30, 8]), dtype=torch.bfloat16, device=cpu)']
Kwargs: {}

KExpertsCPU.forward
Args: ['<ktransformers.operators.experts.KExpertsCPU object at 0x7563b2942b90>', 'Tensor(shape=torch.Size([30, 3584]), dtype=torch.bfloat16, device=cpu)', 'Tensor(shape=torch.Size([30, 8]), dtype=torch.int64, device=cpu)', 'Tensor(shape=torch.Size([30, 8]), dtype=torch.bfloat16, device=cpu)']
Kwargs: {}

KTransformersExperts.forward
Args: ['KTransformersExperts(\n  (orig_module): ModuleList(\n    (0-63): 64 x Qwen2MoeMLP(\n      (gate_proj): Linear(in_features=3584, out_features=2560, bias=False)\n      (up_proj): Linear(in_features=3584, out_features=2560, bias=False)\n      (down_proj): Linear(in_features=2560, out_features=3584, bias=False)\n      (act_fn): SiLU()\n    )\n  )\n)', 'Tensor(shape=torch.Size([30, 3584]), dtype=torch.bfloat16, device=cpu)', 'Tensor(shape=torch.Size([30, 8]), dtype=torch.int64, device=cpu)', 'Tensor(shape=torch.Size([30, 8]), dtype=torch.bfloat16, device=cpu)']
Kwargs: {}

KExpertsCPU.forward
Args: ['<ktransformers.operators.experts.KExpertsCPU object at 0x7563b29438d0>', 'Tensor(shape=torch.Size([30, 3584]), dtype=torch.bfloat16, device=cpu)', 'Tensor(shape=torch.Size([30, 8]), dtype=torch.int64, device=cpu)', 'Tensor(shape=torch.Size([30, 8]), dtype=torch.bfloat16, device=cpu)']
Kwargs: {}

KTransformersExperts.forward
Args: ['KTransformersExperts(\n  (orig_module): ModuleList(\n    (0-63): 64 x Qwen2MoeMLP(\n      (gate_proj): Linear(in_features=3584, out_features=2560, bias=False)\n      (up_proj): Linear(in_features=3584, out_features=2560, bias=False)\n      (down_proj): Linear(in_features=2560, out_features=3584, bias=False)\n      (act_fn): SiLU()\n    )\n  )\n)', 'Tensor(shape=torch.Size([30, 3584]), dtype=torch.bfloat16, device=cpu)', 'Tensor(shape=torch.Size([30, 8]), dtype=torch.int64, device=cpu)', 'Tensor(shape=torch.Size([30, 8]), dtype=torch.bfloat16, device=cpu)']
Kwargs: {}

KExpertsCPU.forward
Args: ['<ktransformers.operators.experts.KExpertsCPU object at 0x7563b2afa850>', 'Tensor(shape=torch.Size([30, 3584]), dtype=torch.bfloat16, device=cpu)', 'Tensor(shape=torch.Size([30, 8]), dtype=torch.int64, device=cpu)', 'Tensor(shape=torch.Size([30, 8]), dtype=torch.bfloat16, device=cpu)']
Kwargs: {}

KTransformersExperts.forward
Args: ['KTransformersExperts(\n  (orig_module): ModuleList(\n    (0-63): 64 x Qwen2MoeMLP(\n      (gate_proj): Linear(in_features=3584, out_features=2560, bias=False)\n      (up_proj): Linear(in_features=3584, out_features=2560, bias=False)\n      (down_proj): Linear(in_features=2560, out_features=3584, bias=False)\n      (act_fn): SiLU()\n    )\n  )\n)', 'Tensor(shape=torch.Size([30, 3584]), dtype=torch.bfloat16, device=cpu)', 'Tensor(shape=torch.Size([30, 8]), dtype=torch.int64, device=cpu)', 'Tensor(shape=torch.Size([30, 8]), dtype=torch.bfloat16, device=cpu)']
Kwargs: {}

KExpertsCPU.forward
Args: ['<ktransformers.operators.experts.KExpertsCPU object at 0x7563b6af8990>', 'Tensor(shape=torch.Size([30, 3584]), dtype=torch.bfloat16, device=cpu)', 'Tensor(shape=torch.Size([30, 8]), dtype=torch.int64, device=cpu)', 'Tensor(shape=torch.Size([30, 8]), dtype=torch.bfloat16, device=cpu)']
Kwargs: {}

KTransformersExperts.forward
Args: ['KTransformersExperts(\n  (orig_module): ModuleList(\n    (0-63): 64 x Qwen2MoeMLP(\n      (gate_proj): Linear(in_features=3584, out_features=2560, bias=False)\n      (up_proj): Linear(in_features=3584, out_features=2560, bias=False)\n      (down_proj): Linear(in_features=2560, out_features=3584, bias=False)\n      (act_fn): SiLU()\n    )\n  )\n)', 'Tensor(shape=torch.Size([30, 3584]), dtype=torch.bfloat16, device=cpu)', 'Tensor(shape=torch.Size([30, 8]), dtype=torch.int64, device=cpu)', 'Tensor(shape=torch.Size([30, 8]), dtype=torch.bfloat16, device=cpu)']
Kwargs: {}

KExpertsCPU.forward
Args: ['<ktransformers.operators.experts.KExpertsCPU object at 0x7563b29ea650>', 'Tensor(shape=torch.Size([30, 3584]), dtype=torch.bfloat16, device=cpu)', 'Tensor(shape=torch.Size([30, 8]), dtype=torch.int64, device=cpu)', 'Tensor(shape=torch.Size([30, 8]), dtype=torch.bfloat16, device=cpu)']
Kwargs: {}

KTransformersExperts.forward
Args: ['KTransformersExperts(\n  (orig_module): ModuleList(\n    (0-63): 64 x Qwen2MoeMLP(\n      (gate_proj): Linear(in_features=3584, out_features=2560, bias=False)\n      (up_proj): Linear(in_features=3584, out_features=2560, bias=False)\n      (down_proj): Linear(in_features=2560, out_features=3584, bias=False)\n      (act_fn): SiLU()\n    )\n  )\n)', 'Tensor(shape=torch.Size([30, 3584]), dtype=torch.bfloat16, device=cpu)', 'Tensor(shape=torch.Size([30, 8]), dtype=torch.int64, device=cpu)', 'Tensor(shape=torch.Size([30, 8]), dtype=torch.bfloat16, device=cpu)']
Kwargs: {}

KExpertsCPU.forward
Args: ['<ktransformers.operators.experts.KExpertsCPU object at 0x7563b29c1cd0>', 'Tensor(shape=torch.Size([30, 3584]), dtype=torch.bfloat16, device=cpu)', 'Tensor(shape=torch.Size([30, 8]), dtype=torch.int64, device=cpu)', 'Tensor(shape=torch.Size([30, 8]), dtype=torch.bfloat16, device=cpu)']
Kwargs: {}

KTransformersExperts.forward
Args: ['KTransformersExperts(\n  (orig_module): ModuleList(\n    (0-63): 64 x Qwen2MoeMLP(\n      (gate_proj): Linear(in_features=3584, out_features=2560, bias=False)\n      (up_proj): Linear(in_features=3584, out_features=2560, bias=False)\n      (down_proj): Linear(in_features=2560, out_features=3584, bias=False)\n      (act_fn): SiLU()\n    )\n  )\n)', 'Tensor(shape=torch.Size([30, 3584]), dtype=torch.bfloat16, device=cpu)', 'Tensor(shape=torch.Size([30, 8]), dtype=torch.int64, device=cpu)', 'Tensor(shape=torch.Size([30, 8]), dtype=torch.bfloat16, device=cpu)']
Kwargs: {}

KExpertsCPU.forward
Args: ['<ktransformers.operators.experts.KExpertsCPU object at 0x7563b29c3910>', 'Tensor(shape=torch.Size([30, 3584]), dtype=torch.bfloat16, device=cpu)', 'Tensor(shape=torch.Size([30, 8]), dtype=torch.int64, device=cpu)', 'Tensor(shape=torch.Size([30, 8]), dtype=torch.bfloat16, device=cpu)']
Kwargs: {}

KTransformersExperts.forward
Args: ['KTransformersExperts(\n  (orig_module): ModuleList(\n    (0-63): 64 x Qwen2MoeMLP(\n      (gate_proj): Linear(in_features=3584, out_features=2560, bias=False)\n      (up_proj): Linear(in_features=3584, out_features=2560, bias=False)\n      (down_proj): Linear(in_features=2560, out_features=3584, bias=False)\n      (act_fn): SiLU()\n    )\n  )\n)', 'Tensor(shape=torch.Size([30, 3584]), dtype=torch.bfloat16, device=cpu)', 'Tensor(shape=torch.Size([30, 8]), dtype=torch.int64, device=cpu)', 'Tensor(shape=torch.Size([30, 8]), dtype=torch.bfloat16, device=cpu)']
Kwargs: {}

KExpertsCPU.forward
Args: ['<ktransformers.operators.experts.KExpertsCPU object at 0x7563b29e4c50>', 'Tensor(shape=torch.Size([30, 3584]), dtype=torch.bfloat16, device=cpu)', 'Tensor(shape=torch.Size([30, 8]), dtype=torch.int64, device=cpu)', 'Tensor(shape=torch.Size([30, 8]), dtype=torch.bfloat16, device=cpu)']
Kwargs: {}

KTransformersExperts.forward
Args: ['KTransformersExperts(\n  (orig_module): ModuleList(\n    (0-63): 64 x Qwen2MoeMLP(\n      (gate_proj): Linear(in_features=3584, out_features=2560, bias=False)\n      (up_proj): Linear(in_features=3584, out_features=2560, bias=False)\n      (down_proj): Linear(in_features=2560, out_features=3584, bias=False)\n      (act_fn): SiLU()\n    )\n  )\n)', 'Tensor(shape=torch.Size([30, 3584]), dtype=torch.bfloat16, device=cpu)', 'Tensor(shape=torch.Size([30, 8]), dtype=torch.int64, device=cpu)', 'Tensor(shape=torch.Size([30, 8]), dtype=torch.bfloat16, device=cpu)']
Kwargs: {}

KExpertsCPU.forward
Args: ['<ktransformers.operators.experts.KExpertsCPU object at 0x7563b29e6b90>', 'Tensor(shape=torch.Size([30, 3584]), dtype=torch.bfloat16, device=cpu)', 'Tensor(shape=torch.Size([30, 8]), dtype=torch.int64, device=cpu)', 'Tensor(shape=torch.Size([30, 8]), dtype=torch.bfloat16, device=cpu)']
Kwargs: {}

KTransformersExperts.forward
Args: ['KTransformersExperts(\n  (orig_module): ModuleList(\n    (0-63): 64 x Qwen2MoeMLP(\n      (gate_proj): Linear(in_features=3584, out_features=2560, bias=False)\n      (up_proj): Linear(in_features=3584, out_features=2560, bias=False)\n      (down_proj): Linear(in_features=2560, out_features=3584, bias=False)\n      (act_fn): SiLU()\n    )\n  )\n)', 'Tensor(shape=torch.Size([30, 3584]), dtype=torch.bfloat16, device=cpu)', 'Tensor(shape=torch.Size([30, 8]), dtype=torch.int64, device=cpu)', 'Tensor(shape=torch.Size([30, 8]), dtype=torch.bfloat16, device=cpu)']
Kwargs: {}

KExpertsCPU.forward
Args: ['<ktransformers.operators.experts.KExpertsCPU object at 0x7563b29e7790>', 'Tensor(shape=torch.Size([30, 3584]), dtype=torch.bfloat16, device=cpu)', 'Tensor(shape=torch.Size([30, 8]), dtype=torch.int64, device=cpu)', 'Tensor(shape=torch.Size([30, 8]), dtype=torch.bfloat16, device=cpu)']
Kwargs: {}

KTransformersExperts.forward
Args: ['KTransformersExperts(\n  (orig_module): ModuleList(\n    (0-63): 64 x Qwen2MoeMLP(\n      (gate_proj): Linear(in_features=3584, out_features=2560, bias=False)\n      (up_proj): Linear(in_features=3584, out_features=2560, bias=False)\n      (down_proj): Linear(in_features=2560, out_features=3584, bias=False)\n      (act_fn): SiLU()\n    )\n  )\n)', 'Tensor(shape=torch.Size([30, 3584]), dtype=torch.bfloat16, device=cpu)', 'Tensor(shape=torch.Size([30, 8]), dtype=torch.int64, device=cpu)', 'Tensor(shape=torch.Size([30, 8]), dtype=torch.bfloat16, device=cpu)']
Kwargs: {}

KExpertsCPU.forward
Args: ['<ktransformers.operators.experts.KExpertsCPU object at 0x7563b29a90d0>', 'Tensor(shape=torch.Size([30, 3584]), dtype=torch.bfloat16, device=cpu)', 'Tensor(shape=torch.Size([30, 8]), dtype=torch.int64, device=cpu)', 'Tensor(shape=torch.Size([30, 8]), dtype=torch.bfloat16, device=cpu)']
Kwargs: {}

KTransformersExperts.forward
Args: ['KTransformersExperts(\n  (orig_module): ModuleList(\n    (0-63): 64 x Qwen2MoeMLP(\n      (gate_proj): Linear(in_features=3584, out_features=2560, bias=False)\n      (up_proj): Linear(in_features=3584, out_features=2560, bias=False)\n      (down_proj): Linear(in_features=2560, out_features=3584, bias=False)\n      (act_fn): SiLU()\n    )\n  )\n)', 'Tensor(shape=torch.Size([30, 3584]), dtype=torch.bfloat16, device=cpu)', 'Tensor(shape=torch.Size([30, 8]), dtype=torch.int64, device=cpu)', 'Tensor(shape=torch.Size([30, 8]), dtype=torch.bfloat16, device=cpu)']
Kwargs: {}

KExpertsCPU.forward
Args: ['<ktransformers.operators.experts.KExpertsCPU object at 0x7563b29ab810>', 'Tensor(shape=torch.Size([30, 3584]), dtype=torch.bfloat16, device=cpu)', 'Tensor(shape=torch.Size([30, 8]), dtype=torch.int64, device=cpu)', 'Tensor(shape=torch.Size([30, 8]), dtype=torch.bfloat16, device=cpu)']
Kwargs: {}

KTransformersExperts.forward
Args: ['KTransformersExperts(\n  (orig_module): ModuleList(\n    (0-63): 64 x Qwen2MoeMLP(\n      (gate_proj): Linear(in_features=3584, out_features=2560, bias=False)\n      (up_proj): Linear(in_features=3584, out_features=2560, bias=False)\n      (down_proj): Linear(in_features=2560, out_features=3584, bias=False)\n      (act_fn): SiLU()\n    )\n  )\n)', 'Tensor(shape=torch.Size([30, 3584]), dtype=torch.bfloat16, device=cpu)', 'Tensor(shape=torch.Size([30, 8]), dtype=torch.int64, device=cpu)', 'Tensor(shape=torch.Size([30, 8]), dtype=torch.bfloat16, device=cpu)']
Kwargs: {}

KExpertsCPU.forward
Args: ['<ktransformers.operators.experts.KExpertsCPU object at 0x7563b2990490>', 'Tensor(shape=torch.Size([30, 3584]), dtype=torch.bfloat16, device=cpu)', 'Tensor(shape=torch.Size([30, 8]), dtype=torch.int64, device=cpu)', 'Tensor(shape=torch.Size([30, 8]), dtype=torch.bfloat16, device=cpu)']
Kwargs: {}

KTransformersExperts.forward
Args: ['KTransformersExperts(\n  (orig_module): ModuleList(\n    (0-63): 64 x Qwen2MoeMLP(\n      (gate_proj): Linear(in_features=3584, out_features=2560, bias=False)\n      (up_proj): Linear(in_features=3584, out_features=2560, bias=False)\n      (down_proj): Linear(in_features=2560, out_features=3584, bias=False)\n      (act_fn): SiLU()\n    )\n  )\n)', 'Tensor(shape=torch.Size([30, 3584]), dtype=torch.bfloat16, device=cpu)', 'Tensor(shape=torch.Size([30, 8]), dtype=torch.int64, device=cpu)', 'Tensor(shape=torch.Size([30, 8]), dtype=torch.bfloat16, device=cpu)']
Kwargs: {}

KExpertsCPU.forward
Args: ['<ktransformers.operators.experts.KExpertsCPU object at 0x7563b2991d90>', 'Tensor(shape=torch.Size([30, 3584]), dtype=torch.bfloat16, device=cpu)', 'Tensor(shape=torch.Size([30, 8]), dtype=torch.int64, device=cpu)', 'Tensor(shape=torch.Size([30, 8]), dtype=torch.bfloat16, device=cpu)']
Kwargs: {}

KTransformersExperts.forward
Args: ['KTransformersExperts(\n  (orig_module): ModuleList(\n    (0-63): 64 x Qwen2MoeMLP(\n      (gate_proj): Linear(in_features=3584, out_features=2560, bias=False)\n      (up_proj): Linear(in_features=3584, out_features=2560, bias=False)\n      (down_proj): Linear(in_features=2560, out_features=3584, bias=False)\n      (act_fn): SiLU()\n    )\n  )\n)', 'Tensor(shape=torch.Size([30, 3584]), dtype=torch.bfloat16, device=cpu)', 'Tensor(shape=torch.Size([30, 8]), dtype=torch.int64, device=cpu)', 'Tensor(shape=torch.Size([30, 8]), dtype=torch.bfloat16, device=cpu)']
Kwargs: {}

KExpertsCPU.forward
Args: ['<ktransformers.operators.experts.KExpertsCPU object at 0x7563b2993690>', 'Tensor(shape=torch.Size([30, 3584]), dtype=torch.bfloat16, device=cpu)', 'Tensor(shape=torch.Size([30, 8]), dtype=torch.int64, device=cpu)', 'Tensor(shape=torch.Size([30, 8]), dtype=torch.bfloat16, device=cpu)']
Kwargs: {}

KTransformersExperts.forward
Args: ['KTransformersExperts(\n  (orig_module): ModuleList(\n    (0-63): 64 x Qwen2MoeMLP(\n      (gate_proj): Linear(in_features=3584, out_features=2560, bias=False)\n      (up_proj): Linear(in_features=3584, out_features=2560, bias=False)\n      (down_proj): Linear(in_features=2560, out_features=3584, bias=False)\n      (act_fn): SiLU()\n    )\n  )\n)', 'Tensor(shape=torch.Size([30, 3584]), dtype=torch.bfloat16, device=cpu)', 'Tensor(shape=torch.Size([30, 8]), dtype=torch.int64, device=cpu)', 'Tensor(shape=torch.Size([30, 8]), dtype=torch.bfloat16, device=cpu)']
Kwargs: {}

KExpertsCPU.forward
Args: ['<ktransformers.operators.experts.KExpertsCPU object at 0x7563b2971990>', 'Tensor(shape=torch.Size([30, 3584]), dtype=torch.bfloat16, device=cpu)', 'Tensor(shape=torch.Size([30, 8]), dtype=torch.int64, device=cpu)', 'Tensor(shape=torch.Size([30, 8]), dtype=torch.bfloat16, device=cpu)']
Kwargs: {}

KTransformersExperts.forward
Args: ['KTransformersExperts(\n  (orig_module): ModuleList(\n    (0-63): 64 x Qwen2MoeMLP(\n      (gate_proj): Linear(in_features=3584, out_features=2560, bias=False)\n      (up_proj): Linear(in_features=3584, out_features=2560, bias=False)\n      (down_proj): Linear(in_features=2560, out_features=3584, bias=False)\n      (act_fn): SiLU()\n    )\n  )\n)', 'Tensor(shape=torch.Size([30, 3584]), dtype=torch.bfloat16, device=cpu)', 'Tensor(shape=torch.Size([30, 8]), dtype=torch.int64, device=cpu)', 'Tensor(shape=torch.Size([30, 8]), dtype=torch.bfloat16, device=cpu)']
Kwargs: {}

KExpertsCPU.forward
Args: ['<ktransformers.operators.experts.KExpertsCPU object at 0x7563b29736d0>', 'Tensor(shape=torch.Size([30, 3584]), dtype=torch.bfloat16, device=cpu)', 'Tensor(shape=torch.Size([30, 8]), dtype=torch.int64, device=cpu)', 'Tensor(shape=torch.Size([30, 8]), dtype=torch.bfloat16, device=cpu)']
Kwargs: {}

KTransformersExperts.forward
Args: ['KTransformersExperts(\n  (orig_module): ModuleList(\n    (0-63): 64 x Qwen2MoeMLP(\n      (gate_proj): Linear(in_features=3584, out_features=2560, bias=False)\n      (up_proj): Linear(in_features=3584, out_features=2560, bias=False)\n      (down_proj): Linear(in_features=2560, out_features=3584, bias=False)\n      (act_fn): SiLU()\n    )\n  )\n)', 'Tensor(shape=torch.Size([30, 3584]), dtype=torch.bfloat16, device=cpu)', 'Tensor(shape=torch.Size([30, 8]), dtype=torch.int64, device=cpu)', 'Tensor(shape=torch.Size([30, 8]), dtype=torch.bfloat16, device=cpu)']
Kwargs: {}

KExpertsCPU.forward
Args: ['<ktransformers.operators.experts.KExpertsCPU object at 0x7563b2954350>', 'Tensor(shape=torch.Size([30, 3584]), dtype=torch.bfloat16, device=cpu)', 'Tensor(shape=torch.Size([30, 8]), dtype=torch.int64, device=cpu)', 'Tensor(shape=torch.Size([30, 8]), dtype=torch.bfloat16, device=cpu)']
Kwargs: {}

KTransformersExperts.forward
Args: ['KTransformersExperts(\n  (orig_module): ModuleList(\n    (0-63): 64 x Qwen2MoeMLP(\n      (gate_proj): Linear(in_features=3584, out_features=2560, bias=False)\n      (up_proj): Linear(in_features=3584, out_features=2560, bias=False)\n      (down_proj): Linear(in_features=2560, out_features=3584, bias=False)\n      (act_fn): SiLU()\n    )\n  )\n)', 'Tensor(shape=torch.Size([30, 3584]), dtype=torch.bfloat16, device=cpu)', 'Tensor(shape=torch.Size([30, 8]), dtype=torch.int64, device=cpu)', 'Tensor(shape=torch.Size([30, 8]), dtype=torch.bfloat16, device=cpu)']
Kwargs: {}

KExpertsCPU.forward
Args: ['<ktransformers.operators.experts.KExpertsCPU object at 0x7563b29569d0>', 'Tensor(shape=torch.Size([30, 3584]), dtype=torch.bfloat16, device=cpu)', 'Tensor(shape=torch.Size([30, 8]), dtype=torch.int64, device=cpu)', 'Tensor(shape=torch.Size([30, 8]), dtype=torch.bfloat16, device=cpu)']
Kwargs: {}

KTransformersExperts.forward
Args: ['KTransformersExperts(\n  (orig_module): ModuleList(\n    (0-63): 64 x Qwen2MoeMLP(\n      (gate_proj): Linear(in_features=3584, out_features=2560, bias=False)\n      (up_proj): Linear(in_features=3584, out_features=2560, bias=False)\n      (down_proj): Linear(in_features=2560, out_features=3584, bias=False)\n      (act_fn): SiLU()\n    )\n  )\n)', 'Tensor(shape=torch.Size([30, 3584]), dtype=torch.bfloat16, device=cpu)', 'Tensor(shape=torch.Size([30, 8]), dtype=torch.int64, device=cpu)', 'Tensor(shape=torch.Size([30, 8]), dtype=torch.bfloat16, device=cpu)']
Kwargs: {}

KExpertsCPU.forward
Args: ['<ktransformers.operators.experts.KExpertsCPU object at 0x7563b29575d0>', 'Tensor(shape=torch.Size([30, 3584]), dtype=torch.bfloat16, device=cpu)', 'Tensor(shape=torch.Size([30, 8]), dtype=torch.int64, device=cpu)', 'Tensor(shape=torch.Size([30, 8]), dtype=torch.bfloat16, device=cpu)']
Kwargs: {}

KTransformersExperts.forward
Args: ['KTransformersExperts(\n  (orig_module): ModuleList(\n    (0-63): 64 x Qwen2MoeMLP(\n      (gate_proj): Linear(in_features=3584, out_features=2560, bias=False)\n      (up_proj): Linear(in_features=3584, out_features=2560, bias=False)\n      (down_proj): Linear(in_features=2560, out_features=3584, bias=False)\n      (act_fn): SiLU()\n    )\n  )\n)', 'Tensor(shape=torch.Size([30, 3584]), dtype=torch.bfloat16, device=cpu)', 'Tensor(shape=torch.Size([30, 8]), dtype=torch.int64, device=cpu)', 'Tensor(shape=torch.Size([30, 8]), dtype=torch.bfloat16, device=cpu)']
Kwargs: {}

KExpertsCPU.forward
Args: ['<ktransformers.operators.experts.KExpertsCPU object at 0x7563b29358d0>', 'Tensor(shape=torch.Size([30, 3584]), dtype=torch.bfloat16, device=cpu)', 'Tensor(shape=torch.Size([30, 8]), dtype=torch.int64, device=cpu)', 'Tensor(shape=torch.Size([30, 8]), dtype=torch.bfloat16, device=cpu)']
Kwargs: {}

KTransformersExperts.forward
Args: ['KTransformersExperts(\n  (orig_module): ModuleList(\n    (0-63): 64 x Qwen2MoeMLP(\n      (gate_proj): Linear(in_features=3584, out_features=2560, bias=False)\n      (up_proj): Linear(in_features=3584, out_features=2560, bias=False)\n      (down_proj): Linear(in_features=2560, out_features=3584, bias=False)\n      (act_fn): SiLU()\n    )\n  )\n)', 'Tensor(shape=torch.Size([30, 3584]), dtype=torch.bfloat16, device=cpu)', 'Tensor(shape=torch.Size([30, 8]), dtype=torch.int64, device=cpu)', 'Tensor(shape=torch.Size([30, 8]), dtype=torch.bfloat16, device=cpu)']
Kwargs: {}

KExpertsCPU.forward
Args: ['<ktransformers.operators.experts.KExpertsCPU object at 0x7563b2936d50>', 'Tensor(shape=torch.Size([30, 3584]), dtype=torch.bfloat16, device=cpu)', 'Tensor(shape=torch.Size([30, 8]), dtype=torch.int64, device=cpu)', 'Tensor(shape=torch.Size([30, 8]), dtype=torch.bfloat16, device=cpu)']
Kwargs: {}

KTransformersExperts.forward
Args: ['KTransformersExperts(\n  (orig_module): ModuleList(\n    (0-63): 64 x Qwen2MoeMLP(\n      (gate_proj): Linear(in_features=3584, out_features=2560, bias=False)\n      (up_proj): Linear(in_features=3584, out_features=2560, bias=False)\n      (down_proj): Linear(in_features=2560, out_features=3584, bias=False)\n      (act_fn): SiLU()\n    )\n  )\n)', 'Tensor(shape=torch.Size([30, 3584]), dtype=torch.bfloat16, device=cpu)', 'Tensor(shape=torch.Size([30, 8]), dtype=torch.int64, device=cpu)', 'Tensor(shape=torch.Size([30, 8]), dtype=torch.bfloat16, device=cpu)']
Kwargs: {}

KExpertsCPU.forward
Args: ['<ktransformers.operators.experts.KExpertsCPU object at 0x7563b29ecc50>', 'Tensor(shape=torch.Size([30, 3584]), dtype=torch.bfloat16, device=cpu)', 'Tensor(shape=torch.Size([30, 8]), dtype=torch.int64, device=cpu)', 'Tensor(shape=torch.Size([30, 8]), dtype=torch.bfloat16, device=cpu)']
Kwargs: {}

KTransformersExperts.forward
Args: ['KTransformersExperts(\n  (orig_module): ModuleList(\n    (0-63): 64 x Qwen2MoeMLP(\n      (gate_proj): Linear(in_features=3584, out_features=2560, bias=False)\n      (up_proj): Linear(in_features=3584, out_features=2560, bias=False)\n      (down_proj): Linear(in_features=2560, out_features=3584, bias=False)\n      (act_fn): SiLU()\n    )\n  )\n)', 'Tensor(shape=torch.Size([30, 3584]), dtype=torch.bfloat16, device=cpu)', 'Tensor(shape=torch.Size([30, 8]), dtype=torch.int64, device=cpu)', 'Tensor(shape=torch.Size([30, 8]), dtype=torch.bfloat16, device=cpu)']
Kwargs: {}

KExpertsCPU.forward
Args: ['<ktransformers.operators.experts.KExpertsCPU object at 0x7563b29ee910>', 'Tensor(shape=torch.Size([30, 3584]), dtype=torch.bfloat16, device=cpu)', 'Tensor(shape=torch.Size([30, 8]), dtype=torch.int64, device=cpu)', 'Tensor(shape=torch.Size([30, 8]), dtype=torch.bfloat16, device=cpu)']
Kwargs: {}

KTransformersExperts.forward
Args: ['KTransformersExperts(\n  (orig_module): ModuleList(\n    (0-63): 64 x Qwen2MoeMLP(\n      (gate_proj): Linear(in_features=3584, out_features=2560, bias=False)\n      (up_proj): Linear(in_features=3584, out_features=2560, bias=False)\n      (down_proj): Linear(in_features=2560, out_features=3584, bias=False)\n      (act_fn): SiLU()\n    )\n  )\n)', 'Tensor(shape=torch.Size([30, 3584]), dtype=torch.bfloat16, device=cpu)', 'Tensor(shape=torch.Size([30, 8]), dtype=torch.int64, device=cpu)', 'Tensor(shape=torch.Size([30, 8]), dtype=torch.bfloat16, device=cpu)']
Kwargs: {}

KExpertsCPU.forward
Args: ['<ktransformers.operators.experts.KExpertsCPU object at 0x7563b29ef5d0>', 'Tensor(shape=torch.Size([30, 3584]), dtype=torch.bfloat16, device=cpu)', 'Tensor(shape=torch.Size([30, 8]), dtype=torch.int64, device=cpu)', 'Tensor(shape=torch.Size([30, 8]), dtype=torch.bfloat16, device=cpu)']
Kwargs: {}

KTransformersExperts.forward
Args: ['KTransformersExperts(\n  (orig_module): ModuleList(\n    (0-63): 64 x Qwen2MoeMLP(\n      (gate_proj): Linear(in_features=3584, out_features=2560, bias=False)\n      (up_proj): Linear(in_features=3584, out_features=2560, bias=False)\n      (down_proj): Linear(in_features=2560, out_features=3584, bias=False)\n      (act_fn): SiLU()\n    )\n  )\n)', 'Tensor(shape=torch.Size([30, 3584]), dtype=torch.bfloat16, device=cpu)', 'Tensor(shape=torch.Size([30, 8]), dtype=torch.int64, device=cpu)', 'Tensor(shape=torch.Size([30, 8]), dtype=torch.bfloat16, device=cpu)']
Kwargs: {}

KExpertsCPU.forward
Args: ['<ktransformers.operators.experts.KExpertsCPU object at 0x7563b2500d10>', 'Tensor(shape=torch.Size([30, 3584]), dtype=torch.bfloat16, device=cpu)', 'Tensor(shape=torch.Size([30, 8]), dtype=torch.int64, device=cpu)', 'Tensor(shape=torch.Size([30, 8]), dtype=torch.bfloat16, device=cpu)']
Kwargs: {}

KTransformersExperts.forward
Args: ['KTransformersExperts(\n  (orig_module): ModuleList(\n    (0-63): 64 x Qwen2MoeMLP(\n      (gate_proj): Linear(in_features=3584, out_features=2560, bias=False)\n      (up_proj): Linear(in_features=3584, out_features=2560, bias=False)\n      (down_proj): Linear(in_features=2560, out_features=3584, bias=False)\n      (act_fn): SiLU()\n    )\n  )\n)', 'Tensor(shape=torch.Size([30, 3584]), dtype=torch.bfloat16, device=cpu)', 'Tensor(shape=torch.Size([30, 8]), dtype=torch.int64, device=cpu)', 'Tensor(shape=torch.Size([30, 8]), dtype=torch.bfloat16, device=cpu)']
Kwargs: {}

KExpertsCPU.forward
Args: ['<ktransformers.operators.experts.KExpertsCPU object at 0x7563b2502750>', 'Tensor(shape=torch.Size([30, 3584]), dtype=torch.bfloat16, device=cpu)', 'Tensor(shape=torch.Size([30, 8]), dtype=torch.int64, device=cpu)', 'Tensor(shape=torch.Size([30, 8]), dtype=torch.bfloat16, device=cpu)']
…
Kwargs: {}

KExpertsCPU.submit_for_one_decode
Args: ['<ktransformers.operators.experts.KExpertsCPU object at 0x704b827fd250>', 'Tensor(shape=torch.Size([3584]), dtype=torch.bfloat16, device=cuda:0)', 'Tensor(shape=torch.Size([8]), dtype=torch.int64, device=cuda:0)', 'Tensor(shape=torch.Size([8]), dtype=torch.bfloat16, device=cuda:0)']
Kwargs: {}

KExpertsCPU.sync_for_one_decode
Args: ['<ktransformers.operators.experts.KExpertsCPU object at 0x704b827fd250>']
Kwargs: {}

KTransformersExperts.load
Args: ['KTransformersExperts(\n  (orig_module): ModuleList(\n    (0-63): 64 x Qwen2MoeMLP(\n      (gate_proj): Linear(in_features=3584, out_features=2560, bias=False)\n      (up_proj): Linear(in_features=3584, out_features=2560, bias=False)\n      (down_proj): Linear(in_features=2560, out_features=3584, bias=False)\n      (act_fn): SiLU()\n    )\n  )\n)']
Kwargs: {}

KExpertsCPU.load
Args: ['<ktransformers.operators.experts.KExpertsCPU object at 0x75bf22831650>', 'None']
Kwargs: {'warmup': 'True'}

KExpertsCPU.load_weights
Args: ['<ktransformers.operators.experts.KExpertsCPU object at 0x75bf22831650>']
Kwargs: {}

KTransformersExperts.load
Args: ['KTransformersExperts(\n  (orig_module): ModuleList(\n    (0-63): 64 x Qwen2MoeMLP(\n      (gate_proj): Linear(in_features=3584, out_features=2560, bias=False)\n      (up_proj): Linear(in_features=3584, out_features=2560, bias=False)\n      (down_proj): Linear(in_features=2560, out_features=3584, bias=False)\n      (act_fn): SiLU()\n    )\n  )\n)']
Kwargs: {}

KExpertsCPU.load
Args: ['<ktransformers.operators.experts.KExpertsCPU object at 0x75bf0e91aed0>', 'None']
Kwargs: {'warmup': 'True'}

KExpertsCPU.load_weights
Args: ['<ktransformers.operators.experts.KExpertsCPU object at 0x75bf0e91aed0>']
Kwargs: {}

KTransformersExperts.load
Args: ['KTransformersExperts(\n  (orig_module): ModuleList(\n    (0-63): 64 x Qwen2MoeMLP(\n      (gate_proj): Linear(in_features=3584, out_features=2560, bias=False)\n      (up_proj): Linear(in_features=3584, out_features=2560, bias=False)\n      (down_proj): Linear(in_features=2560, out_features=3584, bias=False)\n      (act_fn): SiLU()\n    )\n  )\n)']
Kwargs: {}

KExpertsCPU.load
Args: ['<ktransformers.operators.experts.KExpertsCPU object at 0x75bf0e91b6d0>', 'None']
Kwargs: {'warmup': 'True'}

KExpertsCPU.load_weights
Args: ['<ktransformers.operators.experts.KExpertsCPU object at 0x75bf0e91b6d0>']
Kwargs: {}

KTransformersExperts.load
Args: ['KTransformersExperts(\n  (orig_module): ModuleList(\n    (0-63): 64 x Qwen2MoeMLP(\n      (gate_proj): Linear(in_features=3584, out_features=2560, bias=False)\n      (up_proj): Linear(in_features=3584, out_features=2560, bias=False)\n      (down_proj): Linear(in_features=2560, out_features=3584, bias=False)\n      (act_fn): SiLU()\n    )\n  )\n)']
Kwargs: {}

KExpertsCPU.load
Args: ['<ktransformers.operators.experts.KExpertsCPU object at 0x75bf0e980d10>', 'None']
Kwargs: {'warmup': 'True'}

KExpertsCPU.load_weights
Args: ['<ktransformers.operators.experts.KExpertsCPU object at 0x75bf0e980d10>']
Kwargs: {}

KTransformersExperts.load
Args: ['KTransformersExperts(\n  (orig_module): ModuleList(\n    (0-63): 64 x Qwen2MoeMLP(\n      (gate_proj): Linear(in_features=3584, out_features=2560, bias=False)\n      (up_proj): Linear(in_features=3584, out_features=2560, bias=False)\n      (down_proj): Linear(in_features=2560, out_features=3584, bias=False)\n      (act_fn): SiLU()\n    )\n  )\n)']
Kwargs: {}

KExpertsCPU.load
Args: ['<ktransformers.operators.experts.KExpertsCPU object at 0x75bf0e981310>', 'None']
Kwargs: {'warmup': 'True'}

KExpertsCPU.load_weights
Args: ['<ktransformers.operators.experts.KExpertsCPU object at 0x75bf0e981310>']
Kwargs: {}

KTransformersExperts.load
Args: ['KTransformersExperts(\n  (orig_module): ModuleList(\n    (0-63): 64 x Qwen2MoeMLP(\n      (gate_proj): Linear(in_features=3584, out_features=2560, bias=False)\n      (up_proj): Linear(in_features=3584, out_features=2560, bias=False)\n      (down_proj): Linear(in_features=2560, out_features=3584, bias=False)\n      (act_fn): SiLU()\n    )\n  )\n)']
Kwargs: {}

KExpertsCPU.load
Args: ['<ktransformers.operators.experts.KExpertsCPU object at 0x7f25420df610>', 'None']
Kwargs: {'warmup': 'True'}

KExpertsCPU.load_weights
Args: ['<ktransformers.operators.experts.KExpertsCPU object at 0x7f25420df610>']
Kwargs: {}

KTransformersExperts.load
Args: ['KTransformersExperts(\n  (orig_module): ModuleList(\n    (0-63): 64 x Qwen2MoeMLP(\n      (gate_proj): Linear(in_features=3584, out_features=2560, bias=False)\n      (up_proj): Linear(in_features=3584, out_features=2560, bias=False)\n      (down_proj): Linear(in_features=2560, out_features=3584, bias=False)\n      (act_fn): SiLU()\n    )\n  )\n)']
Kwargs: {}

KExpertsCPU.load
Args: ['<ktransformers.operators.experts.KExpertsCPU object at 0x7f2541f16d50>', 'None']
Kwargs: {'warmup': 'True'}

KExpertsCPU.load_weights
Args: ['<ktransformers.operators.experts.KExpertsCPU object at 0x7f2541f16d50>']
Kwargs: {}

KTransformersExperts.load
Args: ['KTransformersExperts(\n  (orig_module): ModuleList(\n    (0-63): 64 x Qwen2MoeMLP(\n      (gate_proj): Linear(in_features=3584, out_features=2560, bias=False)\n      (up_proj): Linear(in_features=3584, out_features=2560, bias=False)\n      (down_proj): Linear(in_features=2560, out_features=3584, bias=False)\n      (act_fn): SiLU()\n    )\n  )\n)']
Kwargs: {}

KExpertsCPU.load
Args: ['<ktransformers.operators.experts.KExpertsCPU object at 0x7f2541f17b10>', 'None']
Kwargs: {'warmup': 'True'}

KExpertsCPU.load_weights
Args: ['<ktransformers.operators.experts.KExpertsCPU object at 0x7f2541f17b10>']
Kwargs: {}

KTransformersExperts.load
Args: ['KTransformersExperts(\n  (orig_module): ModuleList(\n    (0-63): 64 x Qwen2MoeMLP(\n      (gate_proj): Linear(in_features=3584, out_features=2560, bias=False)\n      (up_proj): Linear(in_features=3584, out_features=2560, bias=False)\n      (down_proj): Linear(in_features=2560, out_features=3584, bias=False)\n      (act_fn): SiLU()\n    )\n  )\n)']
Kwargs: {}

KExpertsCPU.load
Args: ['<ktransformers.operators.experts.KExpertsCPU object at 0x7f2541f85c50>', 'None']
Kwargs: {'warmup': 'True'}

KExpertsCPU.load_weights
Args: ['<ktransformers.operators.experts.KExpertsCPU object at 0x7f2541f85c50>']
Kwargs: {}

KTransformersExperts.load
Args: ['KTransformersExperts(\n  (orig_module): ModuleList(\n    (0-63): 64 x Qwen2MoeMLP(\n      (gate_proj): Linear(in_features=3584, out_features=2560, bias=False)\n      (up_proj): Linear(in_features=3584, out_features=2560, bias=False)\n      (down_proj): Linear(in_features=2560, out_features=3584, bias=False)\n      (act_fn): SiLU()\n    )\n  )\n)']
Kwargs: {}

KExpertsCPU.load
Args: ['<ktransformers.operators.experts.KExpertsCPU object at 0x7f2541f868d0>', 'None']
Kwargs: {'warmup': 'True'}

KExpertsCPU.load_weights
Args: ['<ktransformers.operators.experts.KExpertsCPU object at 0x7f2541f868d0>']
Kwargs: {}

KTransformersExperts.load
Args: ['KTransformersExperts(\n  (orig_module): ModuleList(\n    (0-63): 64 x Qwen2MoeMLP(\n      (gate_proj): Linear(in_features=3584, out_features=2560, bias=False)\n      (up_proj): Linear(in_features=3584, out_features=2560, bias=False)\n      (down_proj): Linear(in_features=2560, out_features=3584, bias=False)\n      (act_fn): SiLU()\n    )\n  )\n)']
Kwargs: {}

KExpertsCPU.load
Args: ['<ktransformers.operators.experts.KExpertsCPU object at 0x7f2541fef490>', 'None']
Kwargs: {'warmup': 'True'}

KExpertsCPU.load_weights
Args: ['<ktransformers.operators.experts.KExpertsCPU object at 0x7f2541fef490>']
Kwargs: {}

KTransformersExperts.load
Args: ['KTransformersExperts(\n  (orig_module): ModuleList(\n    (0-63): 64 x Qwen2MoeMLP(\n      (gate_proj): Linear(in_features=3584, out_features=2560, bias=False)\n      (up_proj): Linear(in_features=3584, out_features=2560, bias=False)\n      (down_proj): Linear(in_features=2560, out_features=3584, bias=False)\n      (act_fn): SiLU()\n    )\n  )\n)']
Kwargs: {}

KExpertsCPU.load
Args: ['<ktransformers.operators.experts.KExpertsCPU object at 0x7827b1150d10>', 'None']
Kwargs: {'warmup': 'True'}

KExpertsCPU.load_weights
Args: ['<ktransformers.operators.experts.KExpertsCPU object at 0x7827b1150d10>']
Kwargs: {}

KTransformersExperts.load
Args: ['KTransformersExperts(\n  (orig_module): ModuleList(\n    (0-63): 64 x Qwen2MoeMLP(\n      (gate_proj): Linear(in_features=3584, out_features=2560, bias=False)\n      (up_proj): Linear(in_features=3584, out_features=2560, bias=False)\n      (down_proj): Linear(in_features=2560, out_features=3584, bias=False)\n      (act_fn): SiLU()\n    )\n  )\n)']
Kwargs: {}

KExpertsCPU.load
Args: ['<ktransformers.operators.experts.KExpertsCPU object at 0x78279f30f550>', 'None']
Kwargs: {'warmup': 'True'}

KExpertsCPU.load_weights
Args: ['<ktransformers.operators.experts.KExpertsCPU object at 0x78279f30f550>']
Kwargs: {}

KTransformersExperts.load
Args: ['KTransformersExperts(\n  (orig_module): ModuleList(\n    (0-63): 64 x Qwen2MoeMLP(\n      (gate_proj): Linear(in_features=3584, out_features=2560, bias=False)\n      (up_proj): Linear(in_features=3584, out_features=2560, bias=False)\n      (down_proj): Linear(in_features=2560, out_features=3584, bias=False)\n      (act_fn): SiLU()\n    )\n  )\n)']
Kwargs: {}

KExpertsCPU.load
Args: ['<ktransformers.operators.experts.KExpertsCPU object at 0x78279f325d90>', 'None']
Kwargs: {'warmup': 'True'}

KExpertsCPU.load_weights
Args: ['<ktransformers.operators.experts.KExpertsCPU object at 0x78279f325d90>']
Kwargs: {}

KTransformersExperts.load
Args: ['KTransformersExperts(\n  (orig_module): ModuleList(\n    (0-63): 64 x Qwen2MoeMLP(\n      (gate_proj): Linear(in_features=3584, out_features=2560, bias=False)\n      (up_proj): Linear(in_features=3584, out_features=2560, bias=False)\n      (down_proj): Linear(in_features=2560, out_features=3584, bias=False)\n      (act_fn): SiLU()\n    )\n  )\n)']
Kwargs: {}

KExpertsCPU.load
Args: ['<ktransformers.operators.experts.KExpertsCPU object at 0x78279f3277d0>', 'None']
Kwargs: {'warmup': 'True'}

KExpertsCPU.load_weights
Args: ['<ktransformers.operators.experts.KExpertsCPU object at 0x78279f3277d0>']
Kwargs: {}

KTransformersExperts.load
Args: ['KTransformersExperts(\n  (orig_module): ModuleList(\n    (0-63): 64 x Qwen2MoeMLP(\n      (gate_proj): Linear(in_features=3584, out_features=2560, bias=False)\n      (up_proj): Linear(in_features=3584, out_features=2560, bias=False)\n      (down_proj): Linear(in_features=2560, out_features=3584, bias=False)\n      (act_fn): SiLU()\n    )\n  )\n)']
Kwargs: {}

KExpertsCPU.load
Args: ['<ktransformers.operators.experts.KExpertsCPU object at 0x78279f339190>', 'None']
Kwargs: {'warmup': 'True'}

KExpertsCPU.load_weights
Args: ['<ktransformers.operators.experts.KExpertsCPU object at 0x78279f339190>']
Kwargs: {}

KTransformersExperts.load
Args: ['KTransformersExperts(\n  (orig_module): ModuleList(\n    (0-63): 64 x Qwen2MoeMLP(\n      (gate_proj): Linear(in_features=3584, out_features=2560, bias=False)\n      (up_proj): Linear(in_features=3584, out_features=2560, bias=False)\n      (down_proj): Linear(in_features=2560, out_features=3584, bias=False)\n      (act_fn): SiLU()\n    )\n  )\n)']
Kwargs: {}

KExpertsCPU.load
Args: ['<ktransformers.operators.experts.KExpertsCPU object at 0x78279f33ac50>', 'None']
Kwargs: {'warmup': 'True'}

KExpertsCPU.load_weights
Args: ['<ktransformers.operators.experts.KExpertsCPU object at 0x78279f33ac50>']
Kwargs: {}

KTransformersExperts.load
Args: ['KTransformersExperts(\n  (orig_module): ModuleList(\n    (0-63): 64 x Qwen2MoeMLP(\n      (gate_proj): Linear(in_features=3584, out_features=2560, bias=False)\n      (up_proj): Linear(in_features=3584, out_features=2560, bias=False)\n      (down_proj): Linear(in_features=2560, out_features=3584, bias=False)\n      (act_fn): SiLU()\n    )\n  )\n)']
Kwargs: {}

KExpertsCPU.load
Args: ['<ktransformers.operators.experts.KExpertsCPU object at 0x78279f33b8d0>', 'None']
Kwargs: {'warmup': 'True'}

KExpertsCPU.load_weights
Args: ['<ktransformers.operators.experts.KExpertsCPU object at 0x78279f33b8d0>']
Kwargs: {}

KTransformersExperts.load
Args: ['KTransformersExperts(\n  (orig_module): ModuleList(\n    (0-63): 64 x Qwen2MoeMLP(\n      (gate_proj): Linear(in_features=3584, out_features=2560, bias=False)\n      (up_proj): Linear(in_features=3584, out_features=2560, bias=False)\n      (down_proj): Linear(in_features=2560, out_features=3584, bias=False)\n      (act_fn): SiLU()\n    )\n  )\n)']
Kwargs: {}

KExpertsCPU.load
Args: ['<ktransformers.operators.experts.KExpertsCPU object at 0x78279f355fd0>', 'None']
Kwargs: {'warmup': 'True'}

KExpertsCPU.load_weights
Args: ['<ktransformers.operators.experts.KExpertsCPU object at 0x78279f355fd0>']
Kwargs: {}

KTransformersExperts.load
Args: ['KTransformersExperts(\n  (orig_module): ModuleList(\n    (0-63): 64 x Qwen2MoeMLP(\n      (gate_proj): Linear(in_features=3584, out_features=2560, bias=False)\n      (up_proj): Linear(in_features=3584, out_features=2560, bias=False)\n      (down_proj): Linear(in_features=2560, out_features=3584, bias=False)\n      (act_fn): SiLU()\n    )\n  )\n)']
Kwargs: {}

KExpertsCPU.load
Args: ['<ktransformers.operators.experts.KExpertsCPU object at 0x78279f3579d0>', 'None']
Kwargs: {'warmup': 'True'}

KExpertsCPU.load_weights
Args: ['<ktransformers.operators.experts.KExpertsCPU object at 0x78279f3579d0>']
Kwargs: {}

KTransformersExperts.load
Args: ['KTransformersExperts(\n  (orig_module): ModuleList(\n    (0-63): 64 x Qwen2MoeMLP(\n      (gate_proj): Linear(in_features=3584, out_features=2560, bias=False)\n      (up_proj): Linear(in_features=3584, out_features=2560, bias=False)\n      (down_proj): Linear(in_features=2560, out_features=3584, bias=False)\n      (act_fn): SiLU()\n    )\n  )\n)']
Kwargs: {}

KExpertsCPU.load
Args: ['<ktransformers.operators.experts.KExpertsCPU object at 0x78279f369350>', 'None']
Kwargs: {'warmup': 'True'}

KExpertsCPU.load_weights
Args: ['<ktransformers.operators.experts.KExpertsCPU object at 0x78279f369350>']
Kwargs: {}

KTransformersExperts.load
Args: ['KTransformersExperts(\n  (orig_module): ModuleList(\n    (0-63): 64 x Qwen2MoeMLP(\n      (gate_proj): Linear(in_features=3584, out_features=2560, bias=False)\n      (up_proj): Linear(in_features=3584, out_features=2560, bias=False)\n      (down_proj): Linear(in_features=2560, out_features=3584, bias=False)\n      (act_fn): SiLU()\n    )\n  )\n)']
Kwargs: {}

KExpertsCPU.load
Args: ['<ktransformers.operators.experts.KExpertsCPU object at 0x78279f36acd0>', 'None']
Kwargs: {'warmup': 'True'}

KExpertsCPU.load_weights
Args: ['<ktransformers.operators.experts.KExpertsCPU object at 0x78279f36acd0>']
Kwargs: {}

KTransformersExperts.load
Args: ['KTransformersExperts(\n  (orig_module): ModuleList(\n    (0-63): 64 x Qwen2MoeMLP(\n      (gate_proj): Linear(in_features=3584, out_features=2560, bias=False)\n      (up_proj): Linear(in_features=3584, out_features=2560, bias=False)\n      (down_proj): Linear(in_features=2560, out_features=3584, bias=False)\n      (act_fn): SiLU()\n    )\n  )\n)']
Kwargs: {}

KExpertsCPU.load
Args: ['<ktransformers.operators.experts.KExpertsCPU object at 0x78279f36b950>', 'None']
Kwargs: {'warmup': 'True'}

KExpertsCPU.load_weights
Args: ['<ktransformers.operators.experts.KExpertsCPU object at 0x78279f36b950>']
Kwargs: {}

KTransformersExperts.load
Args: ['KTransformersExperts(\n  (orig_module): ModuleList(\n    (0-63): 64 x Qwen2MoeMLP(\n      (gate_proj): Linear(in_features=3584, out_features=2560, bias=False)\n      (up_proj): Linear(in_features=3584, out_features=2560, bias=False)\n      (down_proj): Linear(in_features=2560, out_features=3584, bias=False)\n      (act_fn): SiLU()\n    )\n  )\n)']
Kwargs: {}

KExpertsCPU.load
Args: ['<ktransformers.operators.experts.KExpertsCPU object at 0x78279f386150>', 'None']
Kwargs: {'warmup': 'True'}

KExpertsCPU.load_weights
Args: ['<ktransformers.operators.experts.KExpertsCPU object at 0x78279f386150>']
Kwargs: {}

KTransformersExperts.load
Args: ['KTransformersExperts(\n  (orig_module): ModuleList(\n    (0-63): 64 x Qwen2MoeMLP(\n      (gate_proj): Linear(in_features=3584, out_features=2560, bias=False)\n      (up_proj): Linear(in_features=3584, out_features=2560, bias=False)\n      (down_proj): Linear(in_features=2560, out_features=3584, bias=False)\n      (act_fn): SiLU()\n    )\n  )\n)']
Kwargs: {}

KExpertsCPU.load
Args: ['<ktransformers.operators.experts.KExpertsCPU object at 0x78279f3879d0>', 'None']
Kwargs: {'warmup': 'True'}

KExpertsCPU.load_weights
Args: ['<ktransformers.operators.experts.KExpertsCPU object at 0x78279f3879d0>']
Kwargs: {}

KTransformersExperts.load
Args: ['KTransformersExperts(\n  (orig_module): ModuleList(\n    (0-63): 64 x Qwen2MoeMLP(\n      (gate_proj): Linear(in_features=3584, out_features=2560, bias=False)\n      (up_proj): Linear(in_features=3584, out_features=2560, bias=False)\n      (down_proj): Linear(in_features=2560, out_features=3584, bias=False)\n      (act_fn): SiLU()\n    )\n  )\n)']
Kwargs: {}

KExpertsCPU.load
Args: ['<ktransformers.operators.experts.KExpertsCPU object at 0x78279f39d450>', 'None']
Kwargs: {'warmup': 'True'}

KExpertsCPU.load_weights
Args: ['<ktransformers.operators.experts.KExpertsCPU object at 0x78279f39d450>']
Kwargs: {}

KTransformersExperts.load
Args: ['KTransformersExperts(\n  (orig_module): ModuleList(\n    (0-63): 64 x Qwen2MoeMLP(\n      (gate_proj): Linear(in_features=3584, out_features=2560, bias=False)\n      (up_proj): Linear(in_features=3584, out_features=2560, bias=False)\n      (down_proj): Linear(in_features=2560, out_features=3584, bias=False)\n      (act_fn): SiLU()\n    )\n  )\n)']
Kwargs: {}

KExpertsCPU.load
Args: ['<ktransformers.operators.experts.KExpertsCPU object at 0x78279f39ee10>', 'None']
Kwargs: {'warmup': 'True'}

KExpertsCPU.load_weights
Args: ['<ktransformers.operators.experts.KExpertsCPU object at 0x78279f39ee10>']
Kwargs: {}

KTransformersExperts.load
Args: ['KTransformersExperts(\n  (orig_module): ModuleList(\n    (0-63): 64 x Qwen2MoeMLP(\n      (gate_proj): Linear(in_features=3584, out_features=2560, bias=False)\n      (up_proj): Linear(in_features=3584, out_features=2560, bias=False)\n      (down_proj): Linear(in_features=2560, out_features=3584, bias=False)\n      (act_fn): SiLU()\n    )\n  )\n)']
Kwargs: {}

KExpertsCPU.load
Args: ['<ktransformers.operators.experts.KExpertsCPU object at 0x78279f39fa90>', 'None']
Kwargs: {'warmup': 'True'}

KExpertsCPU.load_weights
Args: ['<ktransformers.operators.experts.KExpertsCPU object at 0x78279f39fa90>']
Kwargs: {}

KTransformersExperts.load
Args: ['KTransformersExperts(\n  (orig_module): ModuleList(\n    (0-63): 64 x Qwen2MoeMLP(\n      (gate_proj): Linear(in_features=3584, out_features=2560, bias=False)\n      (up_proj): Linear(in_features=3584, out_features=2560, bias=False)\n      (down_proj): Linear(in_features=2560, out_features=3584, bias=False)\n      (act_fn): SiLU()\n    )\n  )\n)']
Kwargs: {}

KExpertsCPU.load
Args: ['<ktransformers.operators.experts.KExpertsCPU object at 0x78279f3ae1d0>', 'None']
Kwargs: {'warmup': 'True'}

KExpertsCPU.load_weights
Args: ['<ktransformers.operators.experts.KExpertsCPU object at 0x78279f3ae1d0>']
Kwargs: {}

KTransformersExperts.load
Args: ['KTransformersExperts(\n  (orig_module): ModuleList(\n    (0-63): 64 x Qwen2MoeMLP(\n      (gate_proj): Linear(in_features=3584, out_features=2560, bias=False)\n      (up_proj): Linear(in_features=3584, out_features=2560, bias=False)\n      (down_proj): Linear(in_features=2560, out_features=3584, bias=False)\n      (act_fn): SiLU()\n    )\n  )\n)']
Kwargs: {}

KExpertsCPU.load
…
KTransformersExperts.forward
Args: ['KTransformersExperts(\n  (orig_module): ModuleList(\n    (0-63): 64 x Qwen2MoeMLP(\n      (gate_proj): Linear(in_features=3584, out_features=2560, bias=False)\n      (up_proj): Linear(in_features=3584, out_features=2560, bias=False)\n      (down_proj): Linear(in_features=2560, out_features=3584, bias=False)\n      (act_fn): SiLU()\n    )\n  )\n)', 'Tensor(shape=torch.Size([20, 3584]), dtype=torch.bfloat16, device=cpu)', 'Tensor(shape=torch.Size([20, 8]), dtype=torch.int64, device=cpu)', 'Tensor(shape=torch.Size([20, 8]), dtype=torch.bfloat16, device=cpu)']
Kwargs: {}

KExpertsCPU.forward
Args: ['<ktransformers.operators.experts.KExpertsCPU object at 0x7d6d46549490>', 'Tensor(shape=torch.Size([20, 3584]), dtype=torch.bfloat16, device=cpu)', 'Tensor(shape=torch.Size([20, 8]), dtype=torch.int64, device=cpu)', 'Tensor(shape=torch.Size([20, 8]), dtype=torch.bfloat16, device=cpu)']
Kwargs: {}

KTransformersExperts.forward
Args: ['KTransformersExperts(\n  (orig_module): ModuleList(\n    (0-63): 64 x Qwen2MoeMLP(\n      (gate_proj): Linear(in_features=3584, out_features=2560, bias=False)\n      (up_proj): Linear(in_features=3584, out_features=2560, bias=False)\n      (down_proj): Linear(in_features=2560, out_features=3584, bias=False)\n      (act_fn): SiLU()\n    )\n  )\n)', 'Tensor(shape=torch.Size([20, 3584]), dtype=torch.bfloat16, device=cpu)', 'Tensor(shape=torch.Size([20, 8]), dtype=torch.int64, device=cpu)', 'Tensor(shape=torch.Size([20, 8]), dtype=torch.bfloat16, device=cpu)']
Kwargs: {}

KExpertsCPU.forward
Args: ['<ktransformers.operators.experts.KExpertsCPU object at 0x7d6d4654b410>', 'Tensor(shape=torch.Size([20, 3584]), dtype=torch.bfloat16, device=cpu)', 'Tensor(shape=torch.Size([20, 8]), dtype=torch.int64, device=cpu)', 'Tensor(shape=torch.Size([20, 8]), dtype=torch.bfloat16, device=cpu)']
Kwargs: {}

KTransformersExperts.forward
Args: ['KTransformersExperts(\n  (orig_module): ModuleList(\n    (0-63): 64 x Qwen2MoeMLP(\n      (gate_proj): Linear(in_features=3584, out_features=2560, bias=False)\n      (up_proj): Linear(in_features=3584, out_features=2560, bias=False)\n      (down_proj): Linear(in_features=2560, out_features=3584, bias=False)\n      (act_fn): SiLU()\n    )\n  )\n)', 'Tensor(shape=torch.Size([20, 3584]), dtype=torch.bfloat16, device=cpu)', 'Tensor(shape=torch.Size([20, 8]), dtype=torch.int64, device=cpu)', 'Tensor(shape=torch.Size([20, 8]), dtype=torch.bfloat16, device=cpu)']
Kwargs: {}

KExpertsCPU.forward
Args: ['<ktransformers.operators.experts.KExpertsCPU object at 0x7d6d46560710>', 'Tensor(shape=torch.Size([20, 3584]), dtype=torch.bfloat16, device=cpu)', 'Tensor(shape=torch.Size([20, 8]), dtype=torch.int64, device=cpu)', 'Tensor(shape=torch.Size([20, 8]), dtype=torch.bfloat16, device=cpu)']
Kwargs: {}

KTransformersExperts.forward
Args: ['KTransformersExperts(\n  (orig_module): ModuleList(\n    (0-63): 64 x Qwen2MoeMLP(\n      (gate_proj): Linear(in_features=3584, out_features=2560, bias=False)\n      (up_proj): Linear(in_features=3584, out_features=2560, bias=False)\n      (down_proj): Linear(in_features=2560, out_features=3584, bias=False)\n      (act_fn): SiLU()\n    )\n  )\n)', 'Tensor(shape=torch.Size([20, 3584]), dtype=torch.bfloat16, device=cpu)', 'Tensor(shape=torch.Size([20, 8]), dtype=torch.int64, device=cpu)', 'Tensor(shape=torch.Size([20, 8]), dtype=torch.bfloat16, device=cpu)']
Kwargs: {}

KExpertsCPU.forward
Args: ['<ktransformers.operators.experts.KExpertsCPU object at 0x7d6d46561e10>', 'Tensor(shape=torch.Size([20, 3584]), dtype=torch.bfloat16, device=cpu)', 'Tensor(shape=torch.Size([20, 8]), dtype=torch.int64, device=cpu)', 'Tensor(shape=torch.Size([20, 8]), dtype=torch.bfloat16, device=cpu)']
Kwargs: {}

KTransformersExperts.forward
Args: ['KTransformersExperts(\n  (orig_module): ModuleList(\n    (0-63): 64 x Qwen2MoeMLP(\n      (gate_proj): Linear(in_features=3584, out_features=2560, bias=False)\n      (up_proj): Linear(in_features=3584, out_features=2560, bias=False)\n      (down_proj): Linear(in_features=2560, out_features=3584, bias=False)\n      (act_fn): SiLU()\n    )\n  )\n)', 'Tensor(shape=torch.Size([20, 3584]), dtype=torch.bfloat16, device=cpu)', 'Tensor(shape=torch.Size([20, 8]), dtype=torch.int64, device=cpu)', 'Tensor(shape=torch.Size([20, 8]), dtype=torch.bfloat16, device=cpu)']
Kwargs: {}

KExpertsCPU.forward
Args: ['<ktransformers.operators.experts.KExpertsCPU object at 0x7d6d46563f50>', 'Tensor(shape=torch.Size([20, 3584]), dtype=torch.bfloat16, device=cpu)', 'Tensor(shape=torch.Size([20, 8]), dtype=torch.int64, device=cpu)', 'Tensor(shape=torch.Size([20, 8]), dtype=torch.bfloat16, device=cpu)']
Kwargs: {}

KTransformersExperts.forward
Args: ['KTransformersExperts(\n  (orig_module): ModuleList(\n    (0-63): 64 x Qwen2MoeMLP(\n      (gate_proj): Linear(in_features=3584, out_features=2560, bias=False)\n      (up_proj): Linear(in_features=3584, out_features=2560, bias=False)\n      (down_proj): Linear(in_features=2560, out_features=3584, bias=False)\n      (act_fn): SiLU()\n    )\n  )\n)', 'Tensor(shape=torch.Size([20, 3584]), dtype=torch.bfloat16, device=cpu)', 'Tensor(shape=torch.Size([20, 8]), dtype=torch.int64, device=cpu)', 'Tensor(shape=torch.Size([20, 8]), dtype=torch.bfloat16, device=cpu)']
Kwargs: {}

KExpertsCPU.forward
Args: ['<ktransformers.operators.experts.KExpertsCPU object at 0x7d6d4657db10>', 'Tensor(shape=torch.Size([20, 3584]), dtype=torch.bfloat16, device=cpu)', 'Tensor(shape=torch.Size([20, 8]), dtype=torch.int64, device=cpu)', 'Tensor(shape=torch.Size([20, 8]), dtype=torch.bfloat16, device=cpu)']
Kwargs: {}

KTransformersExperts.load
Args: ['KTransformersExperts(\n  (orig_module): ModuleList(\n    (0-63): 64 x Qwen2MoeMLP(\n      (gate_proj): Linear(in_features=3584, out_features=2560, bias=False)\n      (up_proj): Linear(in_features=3584, out_features=2560, bias=False)\n      (down_proj): Linear(in_features=2560, out_features=3584, bias=False)\n      (act_fn): SiLU()\n    )\n  )\n)']
Kwargs: {}

KExpertsCPU.load
Args: ['<ktransformers.operators.experts.KExpertsCPU object at 0x79f3d2fc06d0>', 'None']
Kwargs: {'warmup': 'True'}

KExpertsCPU.load_weights
Args: ['<ktransformers.operators.experts.KExpertsCPU object at 0x79f3d2fc06d0>']
Kwargs: {}

KTransformersExperts.load
Args: ['KTransformersExperts(\n  (orig_module): ModuleList(\n    (0-63): 64 x Qwen2MoeMLP(\n      (gate_proj): Linear(in_features=3584, out_features=2560, bias=False)\n      (up_proj): Linear(in_features=3584, out_features=2560, bias=False)\n      (down_proj): Linear(in_features=2560, out_features=3584, bias=False)\n      (act_fn): SiLU()\n    )\n  )\n)']
Kwargs: {}

KExpertsCPU.load
Args: ['<ktransformers.operators.experts.KExpertsCPU object at 0x79f3d0dfacd0>', 'None']
Kwargs: {'warmup': 'True'}

KExpertsCPU.load_weights
Args: ['<ktransformers.operators.experts.KExpertsCPU object at 0x79f3d0dfacd0>']
Kwargs: {}

KTransformersExperts.load
Args: ['KTransformersExperts(\n  (orig_module): ModuleList(\n    (0-63): 64 x Qwen2MoeMLP(\n      (gate_proj): Linear(in_features=3584, out_features=2560, bias=False)\n      (up_proj): Linear(in_features=3584, out_features=2560, bias=False)\n      (down_proj): Linear(in_features=2560, out_features=3584, bias=False)\n      (act_fn): SiLU()\n    )\n  )\n)']
Kwargs: {}

KExpertsCPU.load
Args: ['<ktransformers.operators.experts.KExpertsCPU object at 0x79f3be91ded0>', 'None']
Kwargs: {'warmup': 'True'}

KExpertsCPU.load_weights
Args: ['<ktransformers.operators.experts.KExpertsCPU object at 0x79f3be91ded0>']
Kwargs: {}

KTransformersExperts.load
Args: ['KTransformersExperts(\n  (orig_module): ModuleList(\n    (0-63): 64 x Qwen2MoeMLP(\n      (gate_proj): Linear(in_features=3584, out_features=2560, bias=False)\n      (up_proj): Linear(in_features=3584, out_features=2560, bias=False)\n      (down_proj): Linear(in_features=2560, out_features=3584, bias=False)\n      (act_fn): SiLU()\n    )\n  )\n)']
Kwargs: {}

KExpertsCPU.load
Args: ['<ktransformers.operators.experts.KExpertsCPU object at 0x79f3be91f890>', 'None']
Kwargs: {'warmup': 'True'}

KExpertsCPU.load_weights
Args: ['<ktransformers.operators.experts.KExpertsCPU object at 0x79f3be91f890>']
Kwargs: {}

KTransformersExperts.load
Args: ['KTransformersExperts(\n  (orig_module): ModuleList(\n    (0-63): 64 x Qwen2MoeMLP(\n      (gate_proj): Linear(in_features=3584, out_features=2560, bias=False)\n      (up_proj): Linear(in_features=3584, out_features=2560, bias=False)\n      (down_proj): Linear(in_features=2560, out_features=3584, bias=False)\n      (act_fn): SiLU()\n    )\n  )\n)']
Kwargs: {}

KExpertsCPU.load
Args: ['<ktransformers.operators.experts.KExpertsCPU object at 0x79f3be9306d0>', 'None']
Kwargs: {'warmup': 'True'}

KExpertsCPU.load_weights
Args: ['<ktransformers.operators.experts.KExpertsCPU object at 0x79f3be9306d0>']
Kwargs: {}

KTransformersExperts.load
Args: ['KTransformersExperts(\n  (orig_module): ModuleList(\n    (0-63): 64 x Qwen2MoeMLP(\n      (gate_proj): Linear(in_features=3584, out_features=2560, bias=False)\n      (up_proj): Linear(in_features=3584, out_features=2560, bias=False)\n      (down_proj): Linear(in_features=2560, out_features=3584, bias=False)\n      (act_fn): SiLU()\n    )\n  )\n)']
Kwargs: {}

KExpertsCPU.load
Args: ['<ktransformers.operators.experts.KExpertsCPU object at 0x79f3be932610>', 'None']
Kwargs: {'warmup': 'True'}

KExpertsCPU.load_weights
Args: ['<ktransformers.operators.experts.KExpertsCPU object at 0x79f3be932610>']
Kwargs: {}

KTransformersExperts.load
Args: ['KTransformersExperts(\n  (orig_module): ModuleList(\n    (0-63): 64 x Qwen2MoeMLP(\n      (gate_proj): Linear(in_features=3584, out_features=2560, bias=False)\n      (up_proj): Linear(in_features=3584, out_features=2560, bias=False)\n      (down_proj): Linear(in_features=2560, out_features=3584, bias=False)\n      (act_fn): SiLU()\n    )\n  )\n)']
Kwargs: {}

KExpertsCPU.load
Args: ['<ktransformers.operators.experts.KExpertsCPU object at 0x79f3be932ad0>', 'None']
Kwargs: {'warmup': 'True'}

KExpertsCPU.load_weights
Args: ['<ktransformers.operators.experts.KExpertsCPU object at 0x79f3be932ad0>']
Kwargs: {}

KTransformersExperts.load
Args: ['KTransformersExperts(\n  (orig_module): ModuleList(\n    (0-63): 64 x Qwen2MoeMLP(\n      (gate_proj): Linear(in_features=3584, out_features=2560, bias=False)\n      (up_proj): Linear(in_features=3584, out_features=2560, bias=False)\n      (down_proj): Linear(in_features=2560, out_features=3584, bias=False)\n      (act_fn): SiLU()\n    )\n  )\n)']
Kwargs: {}

KExpertsCPU.load
Args: ['<ktransformers.operators.experts.KExpertsCPU object at 0x79f3be949890>', 'None']
Kwargs: {'warmup': 'True'}

KExpertsCPU.load_weights
Args: ['<ktransformers.operators.experts.KExpertsCPU object at 0x79f3be949890>']
Kwargs: {}

KTransformersExperts.load
Args: ['KTransformersExperts(\n  (orig_module): ModuleList(\n    (0-63): 64 x Qwen2MoeMLP(\n      (gate_proj): Linear(in_features=3584, out_features=2560, bias=False)\n      (up_proj): Linear(in_features=3584, out_features=2560, bias=False)\n      (down_proj): Linear(in_features=2560, out_features=3584, bias=False)\n      (act_fn): SiLU()\n    )\n  )\n)']
Kwargs: {}

KExpertsCPU.load
Args: ['<ktransformers.operators.experts.KExpertsCPU object at 0x79f3be94b990>', 'None']
Kwargs: {'warmup': 'True'}

KExpertsCPU.load_weights
Args: ['<ktransformers.operators.experts.KExpertsCPU object at 0x79f3be94b990>']
Kwargs: {}

KTransformersExperts.load
Args: ['KTransformersExperts(\n  (orig_module): ModuleList(\n    (0-63): 64 x Qwen2MoeMLP(\n      (gate_proj): Linear(in_features=3584, out_features=2560, bias=False)\n      (up_proj): Linear(in_features=3584, out_features=2560, bias=False)\n      (down_proj): Linear(in_features=2560, out_features=3584, bias=False)\n      (act_fn): SiLU()\n    )\n  )\n)']
Kwargs: {}

KExpertsCPU.load
Args: ['<ktransformers.operators.experts.KExpertsCPU object at 0x79f3be960790>', 'None']
Kwargs: {'warmup': 'True'}

KExpertsCPU.load_weights
Args: ['<ktransformers.operators.experts.KExpertsCPU object at 0x79f3be960790>']
Kwargs: {}

KTransformersExperts.load
Args: ['KTransformersExperts(\n  (orig_module): ModuleList(\n    (0-63): 64 x Qwen2MoeMLP(\n      (gate_proj): Linear(in_features=3584, out_features=2560, bias=False)\n      (up_proj): Linear(in_features=3584, out_features=2560, bias=False)\n      (down_proj): Linear(in_features=2560, out_features=3584, bias=False)\n      (act_fn): SiLU()\n    )\n  )\n)']
Kwargs: {}

KExpertsCPU.load
Args: ['<ktransformers.operators.experts.KExpertsCPU object at 0x79f3be9624d0>', 'None']
Kwargs: {'warmup': 'True'}

KExpertsCPU.load_weights
Args: ['<ktransformers.operators.experts.KExpertsCPU object at 0x79f3be9624d0>']
Kwargs: {}

KTransformersExperts.load
Args: ['KTransformersExperts(\n  (orig_module): ModuleList(\n    (0-63): 64 x Qwen2MoeMLP(\n      (gate_proj): Linear(in_features=3584, out_features=2560, bias=False)\n      (up_proj): Linear(in_features=3584, out_features=2560, bias=False)\n      (down_proj): Linear(in_features=2560, out_features=3584, bias=False)\n      (act_fn): SiLU()\n    )\n  )\n)']
Kwargs: {}

KExpertsCPU.load
Args: ['<ktransformers.operators.experts.KExpertsCPU object at 0x79f3be962cd0>', 'None']
Kwargs: {'warmup': 'True'}

KExpertsCPU.load_weights
Args: ['<ktransformers.operators.experts.KExpertsCPU object at 0x79f3be962cd0>']
Kwargs: {}

KTransformersExperts.load
Args: ['KTransformersExperts(\n  (orig_module): ModuleList(\n    (0-63): 64 x Qwen2MoeMLP(\n      (gate_proj): Linear(in_features=3584, out_features=2560, bias=False)\n      (up_proj): Linear(in_features=3584, out_features=2560, bias=False)\n      (down_proj): Linear(in_features=2560, out_features=3584, bias=False)\n      (act_fn): SiLU()\n    )\n  )\n)']
Kwargs: {}

KExpertsCPU.load
Args: ['<ktransformers.operators.experts.KExpertsCPU object at 0x79f3be97d690>', 'None']
Kwargs: {'warmup': 'True'}

KExpertsCPU.load_weights
Args: ['<ktransformers.operators.experts.KExpertsCPU object at 0x79f3be97d690>']
Kwargs: {}

KTransformersExperts.load
Args: ['KTransformersExperts(\n  (orig_module): ModuleList(\n    (0-63): 64 x Qwen2MoeMLP(\n      (gate_proj): Linear(in_features=3584, out_features=2560, bias=False)\n      (up_proj): Linear(in_features=3584, out_features=2560, bias=False)\n      (down_proj): Linear(in_features=2560, out_features=3584, bias=False)\n      (act_fn): SiLU()\n    )\n  )\n)']
Kwargs: {}

KExpertsCPU.load
Args: ['<ktransformers.operators.experts.KExpertsCPU object at 0x79f3be97f250>', 'None']
Kwargs: {'warmup': 'True'}

KExpertsCPU.load_weights
Args: ['<ktransformers.operators.experts.KExpertsCPU object at 0x79f3be97f250>']
Kwargs: {}

KTransformersExperts.load
Args: ['KTransformersExperts(\n  (orig_module): ModuleList(\n    (0-63): 64 x Qwen2MoeMLP(\n      (gate_proj): Linear(in_features=3584, out_features=2560, bias=False)\n      (up_proj): Linear(in_features=3584, out_features=2560, bias=False)\n      (down_proj): Linear(in_features=2560, out_features=3584, bias=False)\n      (act_fn): SiLU()\n    )\n  )\n)']
Kwargs: {}

KExpertsCPU.load
Args: ['<ktransformers.operators.experts.KExpertsCPU object at 0x79f3be9950d0>', 'None']
Kwargs: {'warmup': 'True'}

KExpertsCPU.load_weights
Args: ['<ktransformers.operators.experts.KExpertsCPU object at 0x79f3be9950d0>']
Kwargs: {}

KTransformersExperts.load
Args: ['KTransformersExperts(\n  (orig_module): ModuleList(\n    (0-63): 64 x Qwen2MoeMLP(\n      (gate_proj): Linear(in_features=3584, out_features=2560, bias=False)\n      (up_proj): Linear(in_features=3584, out_features=2560, bias=False)\n      (down_proj): Linear(in_features=2560, out_features=3584, bias=False)\n      (act_fn): SiLU()\n    )\n  )\n)']
Kwargs: {}

KExpertsCPU.load
Args: ['<ktransformers.operators.experts.KExpertsCPU object at 0x79f3be996110>', 'None']
Kwargs: {'warmup': 'True'}

KExpertsCPU.load_weights
Args: ['<ktransformers.operators.experts.KExpertsCPU object at 0x79f3be996110>']
Kwargs: {}

KTransformersExperts.load
Args: ['KTransformersExperts(\n  (orig_module): ModuleList(\n    (0-63): 64 x Qwen2MoeMLP(\n      (gate_proj): Linear(in_features=3584, out_features=2560, bias=False)\n      (up_proj): Linear(in_features=3584, out_features=2560, bias=False)\n      (down_proj): Linear(in_features=2560, out_features=3584, bias=False)\n      (act_fn): SiLU()\n    )\n  )\n)']
Kwargs: {}

KExpertsCPU.load
Args: ['<ktransformers.operators.experts.KExpertsCPU object at 0x79f3be997f50>', 'None']
Kwargs: {'warmup': 'True'}

KExpertsCPU.load_weights
Args: ['<ktransformers.operators.experts.KExpertsCPU object at 0x79f3be997f50>']
Kwargs: {}

KTransformersExperts.load
Args: ['KTransformersExperts(\n  (orig_module): ModuleList(\n    (0-63): 64 x Qwen2MoeMLP(\n      (gate_proj): Linear(in_features=3584, out_features=2560, bias=False)\n      (up_proj): Linear(in_features=3584, out_features=2560, bias=False)\n      (down_proj): Linear(in_features=2560, out_features=3584, bias=False)\n      (act_fn): SiLU()\n    )\n  )\n)']
Kwargs: {}

KExpertsCPU.load
Args: ['<ktransformers.operators.experts.KExpertsCPU object at 0x79f3be9a6090>', 'None']
Kwargs: {'warmup': 'True'}

KExpertsCPU.load_weights
Args: ['<ktransformers.operators.experts.KExpertsCPU object at 0x79f3be9a6090>']
Kwargs: {}

KTransformersExperts.load
Args: ['KTransformersExperts(\n  (orig_module): ModuleList(\n    (0-63): 64 x Qwen2MoeMLP(\n      (gate_proj): Linear(in_features=3584, out_features=2560, bias=False)\n      (up_proj): Linear(in_features=3584, out_features=2560, bias=False)\n      (down_proj): Linear(in_features=2560, out_features=3584, bias=False)\n      (act_fn): SiLU()\n    )\n  )\n)']
Kwargs: {}

KExpertsCPU.load
Args: ['<ktransformers.operators.experts.KExpertsCPU object at 0x79f3be9a7a50>', 'None']
Kwargs: {'warmup': 'True'}

KExpertsCPU.load_weights
Args: ['<ktransformers.operators.experts.KExpertsCPU object at 0x79f3be9a7a50>']
Kwargs: {}

KTransformersExperts.load
Args: ['KTransformersExperts(\n  (orig_module): ModuleList(\n    (0-63): 64 x Qwen2MoeMLP(\n      (gate_proj): Linear(in_features=3584, out_features=2560, bias=False)\n      (up_proj): Linear(in_features=3584, out_features=2560, bias=False)\n      (down_proj): Linear(in_features=2560, out_features=3584, bias=False)\n      (act_fn): SiLU()\n    )\n  )\n)']
Kwargs: {}

KExpertsCPU.load
Args: ['<ktransformers.operators.experts.KExpertsCPU object at 0x79f3be9bd450>', 'None']
Kwargs: {'warmup': 'True'}

KExpertsCPU.load_weights
Args: ['<ktransformers.operators.experts.KExpertsCPU object at 0x79f3be9bd450>']
Kwargs: {}

KTransformersExperts.load
Args: ['KTransformersExperts(\n  (orig_module): ModuleList(\n    (0-63): 64 x Qwen2MoeMLP(\n      (gate_proj): Linear(in_features=3584, out_features=2560, bias=False)\n      (up_proj): Linear(in_features=3584, out_features=2560, bias=False)\n      (down_proj): Linear(in_features=2560, out_features=3584, bias=False)\n      (act_fn): SiLU()\n    )\n  )\n)']
Kwargs: {}

KExpertsCPU.load
Args: ['<ktransformers.operators.experts.KExpertsCPU object at 0x79f3be9bee50>', 'None']
Kwargs: {'warmup': 'True'}

KExpertsCPU.load_weights
Args: ['<ktransformers.operators.experts.KExpertsCPU object at 0x79f3be9bee50>']
Kwargs: {}

KTransformersExperts.load
Args: ['KTransformersExperts(\n  (orig_module): ModuleList(\n    (0-63): 64 x Qwen2MoeMLP(\n      (gate_proj): Linear(in_features=3584, out_features=2560, bias=False)\n      (up_proj): Linear(in_features=3584, out_features=2560, bias=False)\n      (down_proj): Linear(in_features=2560, out_features=3584, bias=False)\n      (act_fn): SiLU()\n    )\n  )\n)']
Kwargs: {}

KExpertsCPU.load
Args: ['<ktransformers.operators.experts.KExpertsCPU object at 0x79f3be9d00d0>', 'None']
Kwargs: {'warmup': 'True'}

KExpertsCPU.load_weights
Args: ['<ktransformers.operators.experts.KExpertsCPU object at 0x79f3be9d00d0>']
Kwargs: {}

KTransformersExperts.load
Args: ['KTransformersExperts(\n  (orig_module): ModuleList(\n    (0-63): 64 x Qwen2MoeMLP(\n      (gate_proj): Linear(in_features=3584, out_features=2560, bias=False)\n      (up_proj): Linear(in_features=3584, out_features=2560, bias=False)\n      (down_proj): Linear(in_features=2560, out_features=3584, bias=False)\n      (act_fn): SiLU()\n    )\n  )\n)']
Kwargs: {}

KExpertsCPU.load
Args: ['<ktransformers.operators.experts.KExpertsCPU object at 0x79f3be9d2250>', 'None']
Kwargs: {'warmup': 'True'}

KExpertsCPU.load_weights
Args: ['<ktransformers.operators.experts.KExpertsCPU object at 0x79f3be9d2250>']
Kwargs: {}

KTransformersExperts.load
Args: ['KTransformersExperts(\n  (orig_module): ModuleList(\n    (0-63): 64 x Qwen2MoeMLP(\n      (gate_proj): Linear(in_features=3584, out_features=2560, bias=False)\n      (up_proj): Linear(in_features=3584, out_features=2560, bias=False)\n      (down_proj): Linear(in_features=2560, out_features=3584, bias=False)\n      (act_fn): SiLU()\n    )\n  )\n)']
Kwargs: {}

KExpertsCPU.load
Args: ['<ktransformers.operators.experts.KExpertsCPU object at 0x79f3be9d3310>', 'None']
Kwargs: {'warmup': 'True'}

KExpertsCPU.load_weights
Args: ['<ktransformers.operators.experts.KExpertsCPU object at 0x79f3be9d3310>']
Kwargs: {}

KTransformersExperts.load
Args: ['KTransformersExperts(\n  (orig_module): ModuleList(\n    (0-63): 64 x Qwen2MoeMLP(\n      (gate_proj): Linear(in_features=3584, out_features=2560, bias=False)\n      (up_proj): Linear(in_features=3584, out_features=2560, bias=False)\n      (down_proj): Linear(in_features=2560, out_features=3584, bias=False)\n      (act_fn): SiLU()\n    )\n  )\n)']
Kwargs: {}

KExpertsCPU.load
Args: ['<ktransformers.operators.experts.KExpertsCPU object at 0x79f3be9e9510>', 'None']
Kwargs: {'warmup': 'True'}

KExpertsCPU.load_weights
Args: ['<ktransformers.operators.experts.KExpertsCPU object at 0x79f3be9e9510>']
Kwargs: {}

KTransformersExperts.load
Args: ['KTransformersExperts(\n  (orig_module): ModuleList(\n    (0-63): 64 x Qwen2MoeMLP(\n      (gate_proj): Linear(in_features=3584, out_features=2560, bias=False)\n      (up_proj): Linear(in_features=3584, out_features=2560, bias=False)\n      (down_proj): Linear(in_features=2560, out_features=3584, bias=False)\n      (act_fn): SiLU()\n    )\n  )\n)']
Kwargs: {}

KExpertsCPU.load
Args: ['<ktransformers.operators.experts.KExpertsCPU object at 0x79f3be9ea310>', 'None']
Kwargs: {'warmup': 'True'}

KExpertsCPU.load_weights
Args: ['<ktransformers.operators.experts.KExpertsCPU object at 0x79f3be9ea310>']
Kwargs: {}

KTransformersExperts.load
Args: ['KTransformersExperts(\n  (orig_module): ModuleList(\n    (0-63): 64 x Qwen2MoeMLP(\n      (gate_proj): Linear(in_features=3584, out_features=2560, bias=False)\n      (up_proj): Linear(in_features=3584, out_features=2560, bias=False)\n      (down_proj): Linear(in_features=2560, out_features=3584, bias=False)\n      (act_fn): SiLU()\n    )\n  )\n)']
Kwargs: {}

KExpertsCPU.load
Args: ['<ktransformers.operators.experts.KExpertsCPU object at 0x79f3be800050>', 'None']
Kwargs: {'warmup': 'True'}

KExpertsCPU.load_weights
Args: ['<ktransformers.operators.experts.KExpertsCPU object at 0x79f3be800050>']
Kwargs: {}

KTransformersExperts.load
Args: ['KTransformersExperts(\n  (orig_module): ModuleList(\n    (0-63): 64 x Qwen2MoeMLP(\n      (gate_proj): Linear(in_features=3584, out_features=2560, bias=False)\n      (up_proj): Linear(in_features=3584, out_features=2560, bias=False)\n      (down_proj): Linear(in_features=2560, out_features=3584, bias=False)\n      (act_fn): SiLU()\n    )\n  )\n)']
Kwargs: {}

KExpertsCPU.load
Args: ['<ktransformers.operators.experts.KExpertsCPU object at 0x79f3be802250>', 'None']
Kwargs: {'warmup': 'True'}

KExpertsCPU.load_weights
Args: ['<ktransformers.operators.experts.KExpertsCPU object at 0x79f3be802250>']
Kwargs: {}

KTransformersExperts.forward
Args: ['KTransformersExperts(\n  (orig_module): ModuleList(\n    (0-63): 64 x Qwen2MoeMLP(\n      (gate_proj): Linear(in_features=3584, out_features=2560, bias=False)\n      (up_proj): Linear(in_features=3584, out_features=2560, bias=False)\n      (down_proj): Linear(in_features=2560, out_features=3584, bias=False)\n      (act_fn): SiLU()\n    )\n  )\n)', 'Tensor(shape=torch.Size([20, 3584]), dtype=torch.bfloat16, device=cpu)', 'Tensor(shape=torch.Size([20, 8]), dtype=torch.int64, device=cpu)', 'Tensor(shape=torch.Size([20, 8]), dtype=torch.bfloat16, device=cpu)']
Kwargs: {}

KExpertsCPU.forward
Args: ['<ktransformers.operators.experts.KExpertsCPU object at 0x79f3d2fc06d0>', 'Tensor(shape=torch.Size([20, 3584]), dtype=torch.bfloat16, device=cpu)', 'Tensor(shape=torch.Size([20, 8]), dtype=torch.int64, device=cpu)', 'Tensor(shape=torch.Size([20, 8]), dtype=torch.bfloat16, device=cpu)']
Kwargs: {}

KTransformersExperts.forward
Args: ['KTransformersExperts(\n  (orig_module): ModuleList(\n    (0-63): 64 x Qwen2MoeMLP(\n      (gate_proj): Linear(in_features=3584, out_features=2560, bias=False)\n      (up_proj): Linear(in_features=3584, out_features=2560, bias=False)\n      (down_proj): Linear(in_features=2560, out_features=3584, bias=False)\n      (act_fn): SiLU()\n    )\n  )\n)', 'Tensor(shape=torch.Size([20, 3584]), dtype=torch.bfloat16, device=cpu)', 'Tensor(shape=torch.Size([20, 8]), dtype=torch.int64, device=cpu)', 'Tensor(shape=torch.Size([20, 8]), dtype=torch.bfloat16, device=cpu)']
Kwargs: {}

KExpertsCPU.forward
Args: ['<ktransformers.operators.experts.KExpertsCPU object at 0x79f3d0dfacd0>', 'Tensor(shape=torch.Size([20, 3584]), dtype=torch.bfloat16, device=cpu)', 'Tensor(shape=torch.Size([20, 8]), dtype=torch.int64, device=cpu)', 'Tensor(shape=torch.Size([20, 8]), dtype=torch.bfloat16, device=cpu)']
Kwargs: {}

KTransformersExperts.forward
Args: ['KTransformersExperts(\n  (orig_module): ModuleList(\n    (0-63): 64 x Qwen2MoeMLP(\n      (gate_proj): Linear(in_features=3584, out_features=2560, bias=False)\n      (up_proj): Linear(in_features=3584, out_features=2560, bias=False)\n      (down_proj): Linear(in_features=2560, out_features=3584, bias=False)\n      (act_fn): SiLU()\n    )\n  )\n)', 'Tensor(shape=torch.Size([20, 3584]), dtype=torch.bfloat16, device=cpu)', 'Tensor(shape=torch.Size([20, 8]), dtype=torch.int64, device=cpu)', 'Tensor(shape=torch.Size([20, 8]), dtype=torch.bfloat16, device=cpu)']
Kwargs: {}

KExpertsCPU.forward
Args: ['<ktransformers.operators.experts.KExpertsCPU object at 0x79f3be91ded0>', 'Tensor(shape=torch.Size([20, 3584]), dtype=torch.bfloat16, device=cpu)', 'Tensor(shape=torch.Size([20, 8]), dtype=torch.int64, device=cpu)', 'Tensor(shape=torch.Size([20, 8]), dtype=torch.bfloat16, device=cpu)']
Kwargs: {}

KTransformersExperts.forward
Args: ['KTransformersExperts(\n  (orig_module): ModuleList(\n    (0-63): 64 x Qwen2MoeMLP(\n      (gate_proj): Linear(in_features=3584, out_features=2560, bias=False)\n      (up_proj): Linear(in_features=3584, out_features=2560, bias=False)\n      (down_proj): Linear(in_features=2560, out_features=3584, bias=False)\n      (act_fn): SiLU()\n    )\n  )\n)', 'Tensor(shape=torch.Size([20, 3584]), dtype=torch.bfloat16, device=cpu)', 'Tensor(shape=torch.Size([20, 8]), dtype=torch.int64, device=cpu)', 'Tensor(shape=torch.Size([20, 8]), dtype=torch.bfloat16, device=cpu)']
Kwargs: {}

KExpertsCPU.forward
Args: ['<ktransformers.operators.experts.KExpertsCPU object at 0x79f3be91f890>', 'Tensor(shape=torch.Size([20, 3584]), dtype=torch.bfloat16, device=cpu)', 'Tensor(shape=torch.Size([20, 8]), dtype=torch.int64, device=cpu)', 'Tensor(shape=torch.Size([20, 8]), dtype=torch.bfloat16, device=cpu)']
Kwargs: {}

KTransformersExperts.forward
Args: ['KTransformersExperts(\n  (orig_module): ModuleList(\n    (0-63): 64 x Qwen2MoeMLP(\n      (gate_proj): Linear(in_features=3584, out_features=2560, bias=False)\n      (up_proj): Linear(in_features=3584, out_features=2560, bias=False)\n      (down_proj): Linear(in_features=2560, out_features=3584, bias=False)\n      (act_fn): SiLU()\n    )\n  )\n)', 'Tensor(shape=torch.Size([20, 3584]), dtype=torch.bfloat16, device=cpu)', 'Tensor(shape=torch.Size([20, 8]), dtype=torch.int64, device=cpu)', 'Tensor(shape=torch.Size([20, 8]), dtype=torch.bfloat16, device=cpu)']
Kwargs: {}

KExpertsCPU.forward
Args: ['<ktransformers.operators.experts.KExpertsCPU object at 0x79f3be9306d0>', 'Tensor(shape=torch.Size([20, 3584]), dtype=torch.bfloat16, device=cpu)', 'Tensor(shape=torch.Size([20, 8]), dtype=torch.int64, device=cpu)', 'Tensor(shape=torch.Size([20, 8]), dtype=torch.bfloat16, device=cpu)']
Kwargs: {}

KTransformersExperts.forward
Args: ['KTransformersExperts(\n  (orig_module): ModuleList(\n    (0-63): 64 x Qwen2MoeMLP(\n      (gate_proj): Linear(in_features=3584, out_features=2560, bias=False)\n      (up_proj): Linear(in_features=3584, out_features=2560, bias=False)\n      (down_proj): Linear(in_features=2560, out_features=3584, bias=False)\n      (act_fn): SiLU()\n    )\n  )\n)', 'Tensor(shape=torch.Size([20, 3584]), dtype=torch.bfloat16, device=cpu)', 'Tensor(shape=torch.Size([20, 8]), dtype=torch.int64, device=cpu)', 'Tensor(shape=torch.Size([20, 8]), dtype=torch.bfloat16, device=cpu)']
Kwargs: {}

KExpertsCPU.forward
Args: ['<ktransformers.operators.experts.KExpertsCPU object at 0x79f3be932610>', 'Tensor(shape=torch.Size([20, 3584]), dtype=torch.bfloat16, device=cpu)', 'Tensor(shape=torch.Size([20, 8]), dtype=torch.int64, device=cpu)', 'Tensor(shape=torch.Size([20, 8]), dtype=torch.bfloat16, device=cpu)']
Kwargs: {}

KTransformersExperts.forward
Args: ['KTransformersExperts(\n  (orig_module): ModuleList(\n    (0-63): 64 x Qwen2MoeMLP(\n      (gate_proj): Linear(in_features=3584, out_features=2560, bias=False)\n      (up_proj): Linear(in_features=3584, out_features=2560, bias=False)\n      (down_proj): Linear(in_features=2560, out_features=3584, bias=False)\n      (act_fn): SiLU()\n    )\n  )\n)', 'Tensor(shape=torch.Size([20, 3584]), dtype=torch.bfloat16, device=cpu)', 'Tensor(shape=torch.Size([20, 8]), dtype=torch.int64, device=cpu)', 'Tensor(shape=torch.Size([20, 8]), dtype=torch.bfloat16, device=cpu)']
Kwargs: {}

KExpertsCPU.forward
Args: ['<ktransformers.operators.experts.KExpertsCPU object at 0x79f3be932ad0>', 'Tensor(shape=torch.Size([20, 3584]), dtype=torch.bfloat16, device=cpu)', 'Tensor(shape=torch.Size([20, 8]), dtype=torch.int64, device=cpu)', 'Tensor(shape=torch.Size([20, 8]), dtype=torch.bfloat16, device=cpu)']
Kwargs: {}

KTransformersExperts.forward
Args: ['KTransformersExperts(\n  (orig_module): ModuleList(\n    (0-63): 64 x Qwen2MoeMLP(\n      (gate_proj): Linear(in_features=3584, out_features=2560, bias=False)\n      (up_proj): Linear(in_features=3584, out_features=2560, bias=False)\n      (down_proj): Linear(in_features=2560, out_features=3584, bias=False)\n      (act_fn): SiLU()\n    )\n  )\n)', 'Tensor(shape=torch.Size([20, 3584]), dtype=torch.bfloat16, device=cpu)', 'Tensor(shape=torch.Size([20, 8]), dtype=torch.int64, device=cpu)', 'Tensor(shape=torch.Size([20, 8]), dtype=torch.bfloat16, device=cpu)']
Kwargs: {}

KExpertsCPU.forward
Args: ['<ktransformers.operators.experts.KExpertsCPU object at 0x79f3be949890>', 'Tensor(shape=torch.Size([20, 3584]), dtype=torch.bfloat16, device=cpu)', 'Tensor(shape=torch.Size([20, 8]), dtype=torch.int64, device=cpu)', 'Tensor(shape=torch.Size([20, 8]), dtype=torch.bfloat16, device=cpu)']
Kwargs: {}

KTransformersExperts.forward
Args: ['KTransformersExperts(\n  (orig_module): ModuleList(\n    (0-63): 64 x Qwen2MoeMLP(\n      (gate_proj): Linear(in_features=3584, out_features=2560, bias=False)\n      (up_proj): Linear(in_features=3584, out_features=2560, bias=False)\n      (down_proj): Linear(in_features=2560, out_features=3584, bias=False)\n      (act_fn): SiLU()\n    )\n  )\n)', 'Tensor(shape=torch.Size([20, 3584]), dtype=torch.bfloat16, device=cpu)', 'Tensor(shape=torch.Size([20, 8]), dtype=torch.int64, device=cpu)', 'Tensor(shape=torch.Size([20, 8]), dtype=torch.bfloat16, device=cpu)']
Kwargs: {}

KExpertsCPU.forward
Args: ['<ktransformers.operators.experts.KExpertsCPU object at 0x79f3be94b990>', 'Tensor(shape=torch.Size([20, 3584]), dtype=torch.bfloat16, device=cpu)', 'Tensor(shape=torch.Size([20, 8]), dtype=torch.int64, device=cpu)', 'Tensor(shape=torch.Size([20, 8]), dtype=torch.bfloat16, device=cpu)']
Kwargs: {}

KTransformersExperts.forward
Args: ['KTransformersExperts(\n  (orig_module): ModuleList(\n    (0-63): 64 x Qwen2MoeMLP(\n      (gate_proj): Linear(in_features=3584, out_features=2560, bias=False)\n      (up_proj): Linear(in_features=3584, out_features=2560, bias=False)\n      (down_proj): Linear(in_features=2560, out_features=3584, bias=False)\n      (act_fn): SiLU()\n    )\n  )\n)', 'Tensor(shape=torch.Size([20, 3584]), dtype=torch.bfloat16, device=cpu)', 'Tensor(shape=torch.Size([20, 8]), dtype=torch.int64, device=cpu)', 'Tensor(shape=torch.Size([20, 8]), dtype=torch.bfloat16, device=cpu)']
Kwargs: {}

KExpertsCPU.forward
Args: ['<ktransformers.operators.experts.KExpertsCPU object at 0x79f3be960790>', 'Tensor(shape=torch.Size([20, 3584]), dtype=torch.bfloat16, device=cpu)', 'Tensor(shape=torch.Size([20, 8]), dtype=torch.int64, device=cpu)', 'Tensor(shape=torch.Size([20, 8]), dtype=torch.bfloat16, device=cpu)']
Kwargs: {}

KTransformersExperts.forward
Args: ['KTransformersExperts(\n  (orig_module): ModuleList(\n    (0-63): 64 x Qwen2MoeMLP(\n      (gate_proj): Linear(in_features=3584, out_features=2560, bias=False)\n      (up_proj): Linear(in_features=3584, out_features=2560, bias=False)\n      (down_proj): Linear(in_features=2560, out_features=3584, bias=False)\n      (act_fn): SiLU()\n    )\n  )\n)', 'Tensor(shape=torch.Size([20, 3584]), dtype=torch.bfloat16, device=cpu)', 'Tensor(shape=torch.Size([20, 8]), dtype=torch.int64, device=cpu)', 'Tensor(shape=torch.Size([20, 8]), dtype=torch.bfloat16, device=cpu)']
Kwargs: {}

KExpertsCPU.forward
Args: ['<ktransformers.operators.experts.KExpertsCPU object at 0x79f3be9624d0>', 'Tensor(shape=torch.Size([20, 3584]), dtype=torch.bfloat16, device=cpu)', 'Tensor(shape=torch.Size([20, 8]), dtype=torch.int64, device=cpu)', 'Tensor(shape=torch.Size([20, 8]), dtype=torch.bfloat16, device=cpu)']
Kwargs: {}

KTransformersExperts.forward
Args: ['KTransformersExperts(\n  (orig_module): ModuleList(\n    (0-63): 64 x Qwen2MoeMLP(\n      (gate_proj): Linear(in_features=3584, out_features=2560, bias=False)\n      (up_proj): Linear(in_features=3584, out_features=2560, bias=False)\n      (down_proj): Linear(in_features=2560, out_features=3584, bias=False)\n      (act_fn): SiLU()\n    )\n  )\n)', 'Tensor(shape=torch.Size([20, 3584]), dtype=torch.bfloat16, device=cpu)', 'Tensor(shape=torch.Size([20, 8]), dtype=torch.int64, device=cpu)', 'Tensor(shape=torch.Size([20, 8]), dtype=torch.bfloat16, device=cpu)']
Kwargs: {}

KExpertsCPU.forward
Args: ['<ktransformers.operators.experts.KExpertsCPU object at 0x79f3be962cd0>', 'Tensor(shape=torch.Size([20, 3584]), dtype=torch.bfloat16, device=cpu)', 'Tensor(shape=torch.Size([20, 8]), dtype=torch.int64, device=cpu)', 'Tensor(shape=torch.Size([20, 8]), dtype=torch.bfloat16, device=cpu)']
Kwargs: {}

KTransformersExperts.forward
Args: ['KTransformersExperts(\n  (orig_module): ModuleList(\n    (0-63): 64 x Qwen2MoeMLP(\n      (gate_proj): Linear(in_features=3584, out_features=2560, bias=False)\n      (up_proj): Linear(in_features=3584, out_features=2560, bias=False)\n      (down_proj): Linear(in_features=2560, out_features=3584, bias=False)\n      (act_fn): SiLU()\n    )\n  )\n)', 'Tensor(shape=torch.Size([20, 3584]), dtype=torch.bfloat16, device=cpu)', 'Tensor(shape=torch.Size([20, 8]), dtype=torch.int64, device=cpu)', 'Tensor(shape=torch.Size([20, 8]), dtype=torch.bfloat16, device=cpu)']
Kwargs: {}

KExpertsCPU.forward
Args: ['<ktransformers.operators.experts.KExpertsCPU object at 0x79f3be97d690>', 'Tensor(shape=torch.Size([20, 3584]), dtype=torch.bfloat16, device=cpu)', 'Tensor(shape=torch.Size([20, 8]), dtype=torch.int64, device=cpu)', 'Tensor(shape=torch.Size([20, 8]), dtype=torch.bfloat16, device=cpu)']
Kwargs: {}

KTransformersExperts.forward
Args: ['KTransformersExperts(\n  (orig_module): ModuleList(\n    (0-63): 64 x Qwen2MoeMLP(\n      (gate_proj): Linear(in_features=3584, out_features=2560, bias=False)\n      (up_proj): Linear(in_features=3584, out_features=2560, bias=False)\n      (down_proj): Linear(in_features=2560, out_features=3584, bias=False)\n      (act_fn): SiLU()\n    )\n  )\n)', 'Tensor(shape=torch.Size([20, 3584]), dtype=torch.bfloat16, device=cpu)', 'Tensor(shape=torch.Size([20, 8]), dtype=torch.int64, device=cpu)', 'Tensor(shape=torch.Size([20, 8]), dtype=torch.bfloat16, device=cpu)']
Kwargs: {}

KExpertsCPU.forward
Args: ['<ktransformers.operators.experts.KExpertsCPU object at 0x79f3be97f250>', 'Tensor(shape=torch.Size([20, 3584]), dtype=torch.bfloat16, device=cpu)', 'Tensor(shape=torch.Size([20, 8]), dtype=torch.int64, device=cpu)', 'Tensor(shape=torch.Size([20, 8]), dtype=torch.bfloat16, device=cpu)']
Kwargs: {}

KTransformersExperts.forward
Args: ['KTransformersExperts(\n  (orig_module): ModuleList(\n    (0-63): 64 x Qwen2MoeMLP(\n      (gate_proj): Linear(in_features=3584, out_features=2560, bias=False)\n      (up_proj): Linear(in_features=3584, out_features=2560, bias=False)\n      (down_proj): Linear(in_features=2560, out_features=3584, bias=False)\n      (act_fn): SiLU()\n    )\n  )\n)', 'Tensor(shape=torch.Size([20, 3584]), dtype=torch.bfloat16, device=cpu)', 'Tensor(shape=torch.Size([20, 8]), dtype=torch.int64, device=cpu)', 'Tensor(shape=torch.Size([20, 8]), dtype=torch.bfloat16, device=cpu)']
Kwargs: {}

KExpertsCPU.forward
Args: ['<ktransformers.operators.experts.KExpertsCPU object at 0x79f3be9950d0>', 'Tensor(shape=torch.Size([20, 3584]), dtype=torch.bfloat16, device=cpu)', 'Tensor(shape=torch.Size([20, 8]), dtype=torch.int64, device=cpu)', 'Tensor(shape=torch.Size([20, 8]), dtype=torch.bfloat16, device=cpu)']
Kwargs: {}

KTransformersExperts.forward
Args: ['KTransformersExperts(\n  (orig_module): ModuleList(\n    (0-63): 64 x Qwen2MoeMLP(\n      (gate_proj): Linear(in_features=3584, out_features=2560, bias=False)\n      (up_proj): Linear(in_features=3584, out_features=2560, bias=False)\n      (down_proj): Linear(in_features=2560, out_features=3584, bias=False)\n      (act_fn): SiLU()\n    )\n  )\n)', 'Tensor(shape=torch.Size([20, 3584]), dtype=torch.bfloat16, device=cpu)', 'Tensor(shape=torch.Size([20, 8]), dtype=torch.int64, device=cpu)', 'Tensor(shape=torch.Size([20, 8]), dtype=torch.bfloat16, device=cpu)']
Kwargs: {}

KExpertsCPU.forward
Args: ['<ktransformers.operators.experts.KExpertsCPU object at 0x79f3be996110>', 'Tensor(shape=torch.Size([20, 3584]), dtype=torch.bfloat16, device=cpu)', 'Tensor(shape=torch.Size([20, 8]), dtype=torch.int64, device=cpu)', 'Tensor(shape=torch.Size([20, 8]), dtype=torch.bfloat16, device=cpu)']
Kwargs: {}

KTransformersExperts.forward
Args: ['KTransformersExperts(\n  (orig_module): ModuleList(\n    (0-63): 64 x Qwen2MoeMLP(\n      (gate_proj): Linear(in_features=3584, out_features=2560, bias=False)\n      (up_proj): Linear(in_features=3584, out_features=2560, bias=False)\n      (down_proj): Linear(in_features=2560, out_features=3584, bias=False)\n      (act_fn): SiLU()\n    )\n  )\n)', 'Tensor(shape=torch.Size([20, 3584]), dtype=torch.bfloat16, device=cpu)', 'Tensor(shape=torch.Size([20, 8]), dtype=torch.int64, device=cpu)', 'Tensor(shape=torch.Size([20, 8]), dtype=torch.bfloat16, device=cpu)']
Kwargs: {}

KExpertsCPU.forward
Args: ['<ktransformers.operators.experts.KExpertsCPU object at 0x79f3be997f50>', 'Tensor(shape=torch.Size([20, 3584]), dtype=torch.bfloat16, device=cpu)', 'Tensor(shape=torch.Size([20, 8]), dtype=torch.int64, device=cpu)', 'Tensor(shape=torch.Size([20, 8]), dtype=torch.bfloat16, device=cpu)']
Kwargs: {}

KTransformersExperts.forward
Args: ['KTransformersExperts(\n  (orig_module): ModuleList(\n    (0-63): 64 x Qwen2MoeMLP(\n      (gate_proj): Linear(in_features=3584, out_features=2560, bias=False)\n      (up_proj): Linear(in_features=3584, out_features=2560, bias=False)\n      (down_proj): Linear(in_features=2560, out_features=3584, bias=False)\n      (act_fn): SiLU()\n    )\n  )\n)', 'Tensor(shape=torch.Size([20, 3584]), dtype=torch.bfloat16, device=cpu)', 'Tensor(shape=torch.Size([20, 8]), dtype=torch.int64, device=cpu)', 'Tensor(shape=torch.Size([20, 8]), dtype=torch.bfloat16, device=cpu)']
Kwargs: {}

KExpertsCPU.forward
Args: ['<ktransformers.operators.experts.KExpertsCPU object at 0x79f3be9a6090>', 'Tensor(shape=torch.Size([20, 3584]), dtype=torch.bfloat16, device=cpu)', 'Tensor(shape=torch.Size([20, 8]), dtype=torch.int64, device=cpu)', 'Tensor(shape=torch.Size([20, 8]), dtype=torch.bfloat16, device=cpu)']
Kwargs: {}

KTransformersExperts.forward
Args: ['KTransformersExperts(\n  (orig_module): ModuleList(\n    (0-63): 64 x Qwen2MoeMLP(\n      (gate_proj): Linear(in_features=3584, out_features=2560, bias=False)\n      (up_proj): Linear(in_features=3584, out_features=2560, bias=False)\n      (down_proj): Linear(in_features=2560, out_features=3584, bias=False)\n      (act_fn): SiLU()\n    )\n  )\n)', 'Tensor(shape=torch.Size([20, 3584]), dtype=torch.bfloat16, device=cpu)', 'Tensor(shape=torch.Size([20, 8]), dtype=torch.int64, device=cpu)', 'Tensor(shape=torch.Size([20, 8]), dtype=torch.bfloat16, device=cpu)']
Kwargs: {}

KExpertsCPU.forward
Args: ['<ktransformers.operators.experts.KExpertsCPU object at 0x79f3be9a7a50>', 'Tensor(shape=torch.Size([20, 3584]), dtype=torch.bfloat16, device=cpu)', 'Tensor(shape=torch.Size([20, 8]), dtype=torch.int64, device=cpu)', 'Tensor(shape=torch.Size([20, 8]), dtype=torch.bfloat16, device=cpu)']
Kwargs: {}

KTransformersExperts.forward
Args: ['KTransformersExperts(\n  (orig_module): ModuleList(\n    (0-63): 64 x Qwen2MoeMLP(\n      (gate_proj): Linear(in_features=3584, out_features=2560, bias=False)\n      (up_proj): Linear(in_features=3584, out_features=2560, bias=False)\n      (down_proj): Linear(in_features=2560, out_features=3584, bias=False)\n      (act_fn): SiLU()\n    )\n  )\n)', 'Tensor(shape=torch.Size([20, 3584]), dtype=torch.bfloat16, device=cpu)', 'Tensor(shape=torch.Size([20, 8]), dtype=torch.int64, device=cpu)', 'Tensor(shape=torch.Size([20, 8]), dtype=torch.bfloat16, device=cpu)']
Kwargs: {}

KExpertsCPU.forward
Args: ['<ktransformers.operators.experts.KExpertsCPU object at 0x79f3be9bd450>', 'Tensor(shape=torch.Size([20, 3584]), dtype=torch.bfloat16, device=cpu)', 'Tensor(shape=torch.Size([20, 8]), dtype=torch.int64, device=cpu)', 'Tensor(shape=torch.Size([20, 8]), dtype=torch.bfloat16, device=cpu)']
Kwargs: {}

KTransformersExperts.forward
Args: ['KTransformersExperts(\n  (orig_module): ModuleList(\n    (0-63): 64 x Qwen2MoeMLP(\n      (gate_proj): Linear(in_features=3584, out_features=2560, bias=False)\n      (up_proj): Linear(in_features=3584, out_features=2560, bias=False)\n      (down_proj): Linear(in_features=2560, out_features=3584, bias=False)\n      (act_fn): SiLU()\n    )\n  )\n)', 'Tensor(shape=torch.Size([20, 3584]), dtype=torch.bfloat16, device=cpu)', 'Tensor(shape=torch.Size([20, 8]), dtype=torch.int64, device=cpu)', 'Tensor(shape=torch.Size([20, 8]), dtype=torch.bfloat16, device=cpu)']
Kwargs: {}

KExpertsCPU.forward
Args: ['<ktransformers.operators.experts.KExpertsCPU object at 0x79f3be9bee50>', 'Tensor(shape=torch.Size([20, 3584]), dtype=torch.bfloat16, device=cpu)', 'Tensor(shape=torch.Size([20, 8]), dtype=torch.int64, device=cpu)', 'Tensor(shape=torch.Size([20, 8]), dtype=torch.bfloat16, device=cpu)']
Kwargs: {}

KTransformersExperts.forward
Args: ['KTransformersExperts(\n  (orig_module): ModuleList(\n    (0-63): 64 x Qwen2MoeMLP(\n      (gate_proj): Linear(in_features=3584, out_features=2560, bias=False)\n      (up_proj): Linear(in_features=3584, out_features=2560, bias=False)\n      (down_proj): Linear(in_features=2560, out_features=3584, bias=False)\n      (act_fn): SiLU()\n    )\n  )\n)', 'Tensor(shape=torch.Size([20, 3584]), dtype=torch.bfloat16, device=cpu)', 'Tensor(shape=torch.Size([20, 8]), dtype=torch.int64, device=cpu)', 'Tensor(shape=torch.Size([20, 8]), dtype=torch.bfloat16, device=cpu)']
Kwargs: {}

KExpertsCPU.forward
Args: ['<ktransformers.operators.experts.KExpertsCPU object at 0x79f3be9d00d0>', 'Tensor(shape=torch.Size([20, 3584]), dtype=torch.bfloat16, device=cpu)', 'Tensor(shape=torch.Size([20, 8]), dtype=torch.int64, device=cpu)', 'Tensor(shape=torch.Size([20, 8]), dtype=torch.bfloat16, device=cpu)']
Kwargs: {}

KTransformersExperts.forward
Args: ['KTransformersExperts(\n  (orig_module): ModuleList(\n    (0-63): 64 x Qwen2MoeMLP(\n      (gate_proj): Linear(in_features=3584, out_features=2560, bias=False)\n      (up_proj): Linear(in_features=3584, out_features=2560, bias=False)\n      (down_proj): Linear(in_features=2560, out_features=3584, bias=False)\n      (act_fn): SiLU()\n    )\n  )\n)', 'Tensor(shape=torch.Size([20, 3584]), dtype=torch.bfloat16, device=cpu)', 'Tensor(shape=torch.Size([20, 8]), dtype=torch.int64, device=cpu)', 'Tensor(shape=torch.Size([20, 8]), dtype=torch.bfloat16, device=cpu)']
Kwargs: {}

KExpertsCPU.forward
Args: ['<ktransformers.operators.experts.KExpertsCPU object at 0x79f3be9d2250>', 'Tensor(shape=torch.Size([20, 3584]), dtype=torch.bfloat16, device=cpu)', 'Tensor(shape=torch.Size([20, 8]), dtype=torch.int64, device=cpu)', 'Tensor(shape=torch.Size([20, 8]), dtype=torch.bfloat16, device=cpu)']
Kwargs: {}

KTransformersExperts.forward
Args: ['KTransformersExperts(\n  (orig_module): ModuleList(\n    (0-63): 64 x Qwen2MoeMLP(\n      (gate_proj): Linear(in_features=3584, out_features=2560, bias=False)\n      (up_proj): Linear(in_features=3584, out_features=2560, bias=False)\n      (down_proj): Linear(in_features=2560, out_features=3584, bias=False)\n      (act_fn): SiLU()\n    )\n  )\n)', 'Tensor(shape=torch.Size([20, 3584]), dtype=torch.bfloat16, device=cpu)', 'Tensor(shape=torch.Size([20, 8]), dtype=torch.int64, device=cpu)', 'Tensor(shape=torch.Size([20, 8]), dtype=torch.bfloat16, device=cpu)']
Kwargs: {}

KExpertsCPU.forward
Args: ['<ktransformers.operators.experts.KExpertsCPU object at 0x79f3be9d3310>', 'Tensor(shape=torch.Size([20, 3584]), dtype=torch.bfloat16, device=cpu)', 'Tensor(shape=torch.Size([20, 8]), dtype=torch.int64, device=cpu)', 'Tensor(shape=torch.Size([20, 8]), dtype=torch.bfloat16, device=cpu)']
Kwargs: {}

KTransformersExperts.forward
Args: ['KTransformersExperts(\n  (orig_module): ModuleList(\n    (0-63): 64 x Qwen2MoeMLP(\n      (gate_proj): Linear(in_features=3584, out_features=2560, bias=False)\n      (up_proj): Linear(in_features=3584, out_features=2560, bias=False)\n      (down_proj): Linear(in_features=2560, out_features=3584, bias=False)\n      (act_fn): SiLU()\n    )\n  )\n)', 'Tensor(shape=torch.Size([20, 3584]), dtype=torch.bfloat16, device=cpu)', 'Tensor(shape=torch.Size([20, 8]), dtype=torch.int64, device=cpu)', 'Tensor(shape=torch.Size([20, 8]), dtype=torch.bfloat16, device=cpu)']
Kwargs: {}

KExpertsCPU.forward
Args: ['<ktransformers.operators.experts.KExpertsCPU object at 0x79f3be9e9510>', 'Tensor(shape=torch.Size([20, 3584]), dtype=torch.bfloat16, device=cpu)', 'Tensor(shape=torch.Size([20, 8]), dtype=torch.int64, device=cpu)', 'Tensor(shape=torch.Size([20, 8]), dtype=torch.bfloat16, device=cpu)']
Kwargs: {}

KTransformersExperts.forward
Args: ['KTransformersExperts(\n  (orig_module): ModuleList(\n    (0-63): 64 x Qwen2MoeMLP(\n      (gate_proj): Linear(in_features=3584, out_features=2560, bias=False)\n      (up_proj): Linear(in_features=3584, out_features=2560, bias=False)\n      (down_proj): Linear(in_features=2560, out_features=3584, bias=False)\n      (act_fn): SiLU()\n    )\n  )\n)', 'Tensor(shape=torch.Size([20, 3584]), dtype=torch.bfloat16, device=cpu)', 'Tensor(shape=torch.Size([20, 8]), dtype=torch.int64, device=cpu)', 'Tensor(shape=torch.Size([20, 8]), dtype=torch.bfloat16, device=cpu)']
Kwargs: {}

KExpertsCPU.forward
Args: ['<ktransformers.operators.experts.KExpertsCPU object at 0x79f3be9ea310>', 'Tensor(shape=torch.Size([20, 3584]), dtype=torch.bfloat16, device=cpu)', 'Tensor(shape=torch.Size([20, 8]), dtype=torch.int64, device=cpu)', 'Tensor(shape=torch.Size([20, 8]), dtype=torch.bfloat16, device=cpu)']
Kwargs: {}

KTransformersExperts.forward
Args: ['KTransformersExperts(\n  (orig_module): ModuleList(\n    (0-63): 64 x Qwen2MoeMLP(\n      (gate_proj): Linear(in_features=3584, out_features=2560, bias=False)\n      (up_proj): Linear(in_features=3584, out_features=2560, bias=False)\n      (down_proj): Linear(in_features=2560, out_features=3584, bias=False)\n      (act_fn): SiLU()\n    )\n  )\n)', 'Tensor(shape=torch.Size([20, 3584]), dtype=torch.bfloat16, device=cpu)', 'Tensor(shape=torch.Size([20, 8]), dtype=torch.int64, device=cpu)', 'Tensor(shape=torch.Size([20, 8]), dtype=torch.bfloat16, device=cpu)']
Kwargs: {}

KExpertsCPU.forward
Args: ['<ktransformers.operators.experts.KExpertsCPU object at 0x79f3be800050>', 'Tensor(shape=torch.Size([20, 3584]), dtype=torch.bfloat16, device=cpu)', 'Tensor(shape=torch.Size([20, 8]), dtype=torch.int64, device=cpu)', 'Tensor(shape=torch.Size([20, 8]), dtype=torch.bfloat16, device=cpu)']
Kwargs: {}

KTransformersExperts.forward
Args: ['KTransformersExperts(\n  (orig_module): ModuleList(\n    (0-63): 64 x Qwen2MoeMLP(\n      (gate_proj): Linear(in_features=3584, out_features=2560, bias=False)\n      (up_proj): Linear(in_features=3584, out_features=2560, bias=False)\n      (down_proj): Linear(in_features=2560, out_features=3584, bias=False)\n      (act_fn): SiLU()\n    )\n  )\n)', 'Tensor(shape=torch.Size([20, 3584]), dtype=torch.bfloat16, device=cpu)', 'Tensor(shape=torch.Size([20, 8]), dtype=torch.int64, device=cpu)', 'Tensor(shape=torch.Size([20, 8]), dtype=torch.bfloat16, device=cpu)']
Kwargs: {}

KExpertsCPU.forward
Args: ['<ktransformers.operators.experts.KExpertsCPU object at 0x79f3be802250>', 'Tensor(shape=torch.Size([20, 3584]), dtype=torch.bfloat16, device=cpu)', 'Tensor(shape=torch.Size([20, 8]), dtype=torch.int64, device=cpu)', 'Tensor(shape=torch.Size([20, 8]), dtype=torch.bfloat16, device=cpu)']
…
