…
: 2560,\n  "norm_topk_prob": false,\n  "num_attention_heads": 28,\n  "num_experts": 64,\n  "num_experts_per_tok": 8,\n  "num_hidden_layers": 28,\n  "num_key_value_heads": 4,\n  "output_router_logits": false,\n  "rms_norm_eps": 1e-06,\n  "rope_theta": 1000000.0,\n  "router_aux_loss_coef": 0.001,\n  "shared_expert_intermediate_size": 20480,\n  "sliding_window": null,\n  "tie_word_embeddings": false,\n  "torch_dtype": "bfloat16",\n  "transformers_version": "4.43.2",\n  "use_cache": true,\n  "use_sliding_window": false,\n  "vocab_size": 151936\n}\n', 'orig_module': 'Qwen2MoeModel(\n  (embed_tokens): Embedding(151936, 3584)\n  (layers): ModuleList(\n    (0-27): 28 x Qwen2MoeDecoderLayer(\n      (self_attn): Qwen2MoeFlashAttention2(\n        (q_proj): Linear(in_features=3584, out_features=3584, bias=True)\n        (k_proj): Linear(in_features=3584, out_features=512, bias=True)\n        (v_proj): Linear(in_features=3584, out_features=512, bias=True)\n        (o_proj): Linear(in_features=3584, out_features=3584, bias=False)\n        (rotary_emb): Qwen2MoeRotaryEmbedding()\n      )\n      (mlp): Qwen2MoeSparseMoeBlock(\n        (gate): Linear(in_features=3584, out_features=64, bias=False)\n        (experts): ModuleList(\n          (0-63): 64 x Qwen2MoeMLP(\n            (gate_proj): Linear(in_features=3584, out_features=2560, bias=False)\n            (up_proj): Linear(in_features=3584, out_features=2560, bias=False)\n            (down_proj): Linear(in_features=2560, out_features=3584, bias=False)\n            (act_fn): SiLU()\n          )\n        )\n        (shared_expert): Qwen2MoeMLP(\n          (gate_proj): Linear(in_features=3584, out_features=20480, bias=False)\n          (up_proj): Linear(in_features=3584, out_features=20480, bias=False)\n          (down_proj): Linear(in_features=20480, out_features=3584, bias=False)\n          (act_fn): SiLU()\n        )\n        (shared_expert_gate): Linear(in_features=3584, out_features=1, bias=False)\n      )\n      (input_layernorm): Qwen2MoeRMSNorm()\n      (post_attention_layernorm): Qwen2MoeRMSNorm()\n    )\n  )\n  (norm): Qwen2MoeRMSNorm()\n)', 'per_layer_prefill_intput_threshold': '0'}

KQwen2MoeModel.forward
Args: ['KQwen2MoeModel']
Kwargs: {'input_ids': 'None', 'attention_mask': 'None', 'position_ids': 'None', 'past_key_values': 'StaticCach
…
