…
[2025-05-06 05:20:31.182] Qwen2MoeSparseMoeBlock: __init__: num_experts = 64, top_k = 8, norm_topk_prob = 0
[2025-05-06 05:20:31.214] Qwen2MoeSparseMoeBlock: __init__: num_experts = 64, top_k = 8, norm_topk_prob = 0
[2025-05-06 05:20:31.246] Qwen2MoeSparseMoeBlock: __init__: num_experts = 64, top_k = 8, norm_topk_prob = 0
[2025-05-06 05:20:31.279] Qwen2MoeSparseMoeBlock: __init__: num_experts = 64, top_k = 8, norm_topk_prob = 0
[2025-05-06 05:20:31.311] Qwen2MoeSparseMoeBlock: __init__: num_experts = 64, top_k = 8, norm_topk_prob = 0
[2025-05-06 05:20:31.361] layers: ModuleList(
  (0-27): 28 x Qwen2MoeDecoderLayer(
    (self_attn): Qwen2MoeFlashAttention2(
      (q_proj): Linear(in_features=3584, out_features=3584, bias=True)
      (k_proj): Linear(in_features=3584, out_features=512, bias=True)
      (v_proj): Linear(in_features=3584, out_features=512, bias=True)
      (o_proj): Linear(in_features=3584, out_features=3584, bias=False)
      (rotary_emb): Qwen2MoeRotaryEmbedding()
    )
    (mlp): Qwen2MoeSparseMoeBlock(
      (gate): Linear(in_features=3584, out_features=64, bias=False)
      (experts): ModuleList(
        (0-63): 64 x Qwen2MoeMLP(
          (gate_proj): Linear(in_features=3584, out_features=2560, bias=False)
          (up_proj): Linear(in_features=3584, out_features=2560, bias=False)
          (down_proj): Linear(in_features=2560, out_features=3584, bias=False)
          (act_fn): SiLU()
        )
      )
      (shared_expert): Qwen2MoeMLP(
        (gate_proj): Linear(in_features=3584, out_features=20480, bias=False)
        (up_proj): Linear(in_features=3584, out_features=20480, bias=False)
        (down_proj): Linear(in_features=20480, out_features=3584, bias=False)
        (act_fn): SiLU()
      )
      (shared_expert_gate): Linear(in_features=3584, out_features=1, bias=False)
    )
    (input_layernorm): Qwen2MoeRMSNorm()
    (post_attention_layernorm): Qwen2MoeRMSNorm()
  )
)
